HW2/decoder_params.pth (torch, 102151 bytes, 9 tensors)

decoder_lin.0.weight f4 [64, 2]
000000 0c 39 a8 3e 49 18 1d 3f 2a a6 ee be 00 b3 f3 bd
       0.32856023 0.6136518 -0.46611148 -0.11899376
000010 3e 42 18 bf c6 70 b3 bd 8c 63 44 3e 29 77 7a be
       -0.5947608 -0.08761744 0.19178599 -0.24459518
000020 c8 9c 15 bf e4 ba 07 bf 6b d0 61 bd 11 9d 0b 3f
       -0.58442354 -0.5301955 -0.055130403 0.5453654
000030 de 3d 2c 3e 94 eb 31 bf 8e f1 ce 3d 5e 68 2f 3e
       0.16820475 -0.6950009 0.10104667 0.17129657
000040 6e 40 37 bf 14 c7 08 3e cd 2c ce 3e 90 94 06 bf
       -0.71582687 0.13357192 0.40268555 -0.5257044
000050 d8 30 24 bf 61 d9 bf be 5e 2d 52 bc a8 01 35 3e
       -0.6413703 -0.37470534 -0.012828199 0.17676413
000060 1f f3 06 bd dc fa 50 3e 0b a3 f1 be 35 05 91 be
       -0.032946702 0.20408195 -0.47194704 -0.28324285
000070 1e 71 2d bf 78 a5 23 3f 5e 41 ae be 7d eb 82 bc
       -0.6775073 0.6392436 -0.34034246 -0.01598143
000080 9e 52 1a 3f 58 fe 70 be c5 7b 2e 3e ee a1 c1 be
       0.60282314 -0.23534524 0.17039402 -0.37818855
000090 9c 85 06 39 94 cc 92 ae 38 08 cb be dc 24 26 bf
       0.00012829009 -6.675652e-11 -0.39654708 -0.6489999
0000a0 8f 6d 1f bf 9b 62 23 bf 12 ee 95 3e 8c 14 0f 3d
       -0.6227655 -0.63822335 0.29283196 0.034931704
0000b0 04 ad b9 3e b9 1b 0c be 27 55 96 be d4 53 bb 3e
       0.36264813 -0.1368245 -0.2936184 0.36587393
0000c0 5c d6 11 bf 1a 87 c7 be d1 ef 16 3f d0 19 d2 be
       -0.5696771 -0.38970262 0.5895968 -0.41035318
0000d0 fe 4c f1 bd 54 37 89 3b 71 46 66 3e 70 08 6d ba
       -0.11782263 0.004187504 0.22487809 -0.000904209
0000e0 01 6f e7 bc 61 05 d8 be 54 0d 92 3d 83 7a 13 3e
       -0.028251173 -0.42191604 0.071314484 0.14402203
0000f0 0b fe e0 3d 4f 0b 07 bf c5 fc 13 bf a7 31 81 be
       0.10985955 -0.5275163 -0.5780757 -0.25233194
000100 e0 09 8d bd 92 0c 23 be db b6 1f bf 9f 38 c0 bd
       -0.06886649 -0.15922764 -0.6238839 -0.093857996
000110 2e 4d d5 3e b7 eb d2 bd ea 7c 17 3f 8f d7 fe 3e
       0.41660446 -0.10298865 0.5917498 0.49773833
000120 58 3b ae be 6d 84 8b bd 00 a7 6f bd 7a 94 84 3e
       -0.3402965 -0.068123676 -0.058508873 0.2589453
000130 f8 d8 6f 3e fe 15 1b 3f bf e3 00 3f d2 35 28 be
       0.23422611 0.6058043 0.5034751 -0.16426781
000140 c4 e7 6f 3e 99 c3 9c be ba 0b 68 3e a5 13 be 3e
       0.23428255 -0.3061798 0.22660723 0.37124363
000150 36 74 12 3f 81 d1 1b 3e 62 f1 46 3d a1 a8 4e 3d
       0.57208574 0.15216638 0.048570044 0.050453786
000160 5e 49 d3 be c4 23 c9 3e c2 87 d3 be 4c 83 1a 3f
       -0.41266912 0.392851 -0.41314512 0.60356593
000170 2a 4c 7e 3e 9e 63 e5 3b f9 23 c1 3a b0 d2 34 bf
       0.24833742 0.0070004007 0.0014735452 -0.70633984
000180 97 af 19 bf b2 70 33 bf 0e 00 3e 3e 17 46 da be
       -0.60033554 -0.70093834 0.18554708 -0.426316
000190 bb 54 a9 be c4 56 54 be 82 70 8d 3e 57 52 6b be
       -0.33072457 -0.20736223 0.276249 -0.22980629
0001a0 b8 9b d6 3d b4 a7 29 3d 24 43 8b 3e 63 c9 4d 3d
       0.1047892 0.0414197 0.27199662 0.050240885
0001b0 c1 57 97 3e ef 5c b4 3e ce 8a 67 bd 1f ab 03 3f
       0.29559138 0.35227153 -0.05652886 0.51432985
0001c0 50 b0 8f 3e 14 2d 54 3d b9 07 32 bf a3 fe 99 3e
       0.28064203 0.051800802 -0.69543034 0.30077085
0001d0 20 a6 da be 5f d8 0a 3e 9f 53 1b bc 9a de 1c bf
       -0.42704868 0.13559102 -0.009480386 -0.61277163
0001e0 77 47 81 3d f8 7d ff be 75 37 03 bf 20 a0 0d 3d
       0.06312459 -0.49900794 -0.51256496 0.034576535
0001f0 a3 c6 a1 be 49 ad 12 be 38 22 d2 be 0e 91 0c 3f
       -0.3159686 -0.14323916 -0.41041732 0.54908836

decoder_lin.0.bias f4 [64]
000000 42 7b a3 3e 71 4c 2e 3f d6 ef b2 be 48 4e 17 be
       0.31929976 0.6808539 -0.34948605 -0.14775956
000010 c8 7a df bd 04 c8 8b be 65 5a 1d bf 9c 52 b5 be
       -0.109120905 -0.27301037 -0.61466056 -0.35414588
000020 71 ea cf 3d 9d e4 6e 3e 82 37 97 be bd 4b 53 bc
       0.10152138 0.23329397 -0.29534537 -0.012896475
000030 8c 85 b7 be 15 83 dc 3e 62 2b aa 3e 6b 01 72 3e
       -0.35844076 0.43068758 0.33236223 0.23633353
000040 df f4 aa 3e c7 ff a9 3e aa 07 0e bc 76 8b 2c 3f
       0.33389947 0.33202955 -0.008668819 0.674003
000050 58 98 16 bf a1 74 97 be 99 62 0d 3f a6 44 3e 3f
       -0.5882621 -0.29581168 0.55228573 0.743235
000060 ea f4 fe be 77 ba b0 3e 39 d1 f2 3e 00 2f 9b bd
       -0.4979623 0.3451726 0.4742525 -0.07577324
000070 33 5a 8a be 13 f2 aa bc 37 2e dc be 4f ae c1 be
       -0.27021942 -0.020867383 -0.4300401 -0.378283
000080 60 c2 13 bf 8b 4d f6 be 16 c7 fc 3e f4 44 76 3e
       -0.5771847 -0.48106036 0.4937064 0.24049741
000090 34 0e 02 3f 88 75 8f 3d 8b a6 14 be bf f5 f6 be
       0.5080292 0.07004839 -0.14516656 -0.48234364
0000a0 f1 96 e4 bb 30 f4 28 3f a3 c9 f5 3e 0c 8b 0b bf
       -0.0069760014 0.659976 0.480054 -0.54509044
0000b0 39 fd 05 bf eb 33 2b 3e 3b 51 92 be d5 8f 11 3f
       -0.5233951 0.16719024 -0.285776 0.56860095
0000c0 bd 02 89 be de 95 72 3e 78 0a f5 bc 8c 0d 91 be
       -0.26759902 0.23689982 -0.029912218 -0.28330648
0000d0 c6 24 73 3e c8 92 a7 bb 53 90 d0 be 5a 02 6f be
       0.23744497 -0.0051139332 -0.4073511 -0.23340741
0000e0 b2 a0 f9 3d 96 07 06 bf 76 e2 8f be 11 01 94 3e
       0.12188853 -0.52355325 -0.28102463 0.28907064
0000f0 f3 e7 ae be f3 d1 31 3f 58 0b c4 be 71 99 07 3e
       -0.34161338 0.6946098 -0.38289905 0.13242127

decoder_lin.2.weight f4 [288, 64]
000000 cf 61 a9 bc 33 ee 11 3e 6e 8b 34 3d b7 46 76 3d
       -0.020676522 0.14251022 0.044078283 0.060126033
000010 ab f6 2a 3d 95 af a3 3d 37 f5 1f 3e d2 c8 3b b3
       0.041739147 0.07992474 0.15620886 -4.3721975e-08
000020 d5 81 79 bd 8c e7 2e 3e 2f 49 10 bc 92 7f 0e 3d
       -0.060914833 0.17080516 -0.008806511 0.03478963
000030 ec dc d5 bc c2 07 97 3d 6a b2 ad bc b5 f7 91 3d
       -0.02610632 0.073745266 -0.021203239 0.071273245
000040 4b d1 d5 3d 68 1b 92 3c b8 d0 0d bc 31 37 d5 3d
       0.1044031 0.017835334 -0.008655719 0.104109176
000050 22 09 0f bc 86 bc a0 bc 68 4c e6 3d 20 86 d2 3d
       -0.008730205 -0.019621145 0.11245042 0.102794886
000060 e0 53 8e bc 26 b6 f6 3c 45 25 f3 bc 68 fd 4f 3c
       -0.01737398 0.030116152 -0.029680857 0.012694694
000070 c5 8f 01 bb 6a 7a c9 bc c7 e2 90 3d ef bf 26 3d
       -0.0019769531 -0.024594504 0.07074504 0.040710386
000080 7e df 2b bb 2d 6c 56 bd 7c 9a 89 bc 4e 4e 29 3d
       -0.002622574 -0.05234926 -0.016797297 0.041334443
000090 e3 a3 f0 3c eb 41 ca 3d e2 89 8c 3c b9 be 1a 3d
       0.029375022 0.09875854 0.017155591 0.037779544
0000a0 44 5b 8c 3d 24 af c3 bc 55 7f 93 3d 63 f7 8b bc
       0.06853345 -0.023887224 0.07202021 -0.017085737
0000b0 3a 44 a2 3d f9 fe c2 3d 1f 27 f8 3a 0d a0 20 3e
       0.079231694 0.095212884 0.0018932557 0.15686055
0000c0 be 2a 1e 3d df ff 36 bd bd 80 19 3b 31 c4 3e 3d
       0.03861498 -0.04467761 0.0023422681 0.04657382
0000d0 4b de 78 3c 0c 05 4f 3c e6 35 16 bc 3b b6 50 3d
       0.0151897175 0.012635481 -0.009168124 0.05095504
0000e0 e9 1f da bc ef 8f 24 bd 14 dc f9 bb 8c a0 4e bd
       -0.026626544 -0.04017633 -0.0076251123 -0.05044608
0000f0 3e 46 ad 3d 96 8f 2c 3d 39 04 ab 3d 1f ae d3 bb
       0.08460663 0.04212912 0.08350415 -0.006459966
000100 23 f7 a9 3d 9f 12 ee bc 78 3e df bd c9 b7 cf 3d
       0.08299091 -0.029061614 -0.10900587 0.10142476
000110 9a 73 2f bd 89 bb bf 3b 66 83 7d 3d 21 22 ae 38
       -0.042834856 0.0058512134 0.06189289 8.3033236e-05
000120 2a dd 65 3d 5f f3 91 3d fe 0d ee 3c 53 c0 e4 3c
       0.05611912 0.071264975 0.029059406 0.027923739
000130 03 7b c2 3b 6d 0e 04 3e 4e 28 50 bc 66 2a 86 bc
       0.0059350743 0.12896128 -0.012704922 -0.016377639
000140 9d 93 f5 3d c8 18 99 bc 70 8a cf b9 b1 73 f2 3d
       0.119910456 -0.018688574 -0.0003958526 0.11838473
000150 3e e2 18 3d 45 6a 05 3d 3f 28 f8 bc ee fe a9 3d
       0.037325136 0.03257205 -0.030292628 0.08300577
000160 40 78 08 bd 3a 66 36 3e ee 6b df 3c f0 1d ec 3c
       -0.033317804 0.17812434 0.027273145 0.028822869
000170 8a 93 6c 3d 23 b2 23 bb 08 d4 07 3e 5c ac 32 3c
       0.05775789 -0.0024978004 0.13264477 0.0109053515
000180 e1 b6 6f bc 85 c5 0f 3c 0c 54 02 3d 80 37 f1 bb
       -0.014631004 0.00877512 0.031818435 -0.0073613524
000190 f5 94 38 bd 74 1b 14 bd bc c3 c6 3c 9c 38 6d 3d
       -0.04506393 -0.036158994 0.024263255 0.057915315
0001a0 cc c9 a1 3d 5a f5 96 bc 7a 47 60 3c a0 49 f9 af
       0.07899818 -0.01842754 0.013688916 -4.534515e-10
0001b0 2c d5 3a bd 36 54 34 bd ba 17 5b bc 15 a1 db 3d
       -0.045613453 -0.044025622 -0.013372356 0.10724083
0001c0 e0 ed ee bd 03 8c 80 3d f3 b9 17 bc be 3b a4 3c
       -0.11666465 0.06276705 -0.009260642 0.020048019
0001d0 75 e8 07 bc 00 05 6c 3c ce 67 5b bb 7c 3e 3e 3d
       -0.008295168 0.014405489 -0.003347862 0.04644631
0001e0 1c 01 32 bc 4b 93 26 bd 6a b1 30 bd 20 61 b4 3d
       -0.010864522 -0.040667813 -0.043137945 0.088075876
0001f0 c2 7f 54 bd 34 17 c4 bc fb 2e e1 bc f9 a4 3c 3d
       -0.05187965 -0.023936845 -0.027488222 0.046055768
000200 5c 27 aa bd d3 2b 37 bd 53 7a 28 bd 70 7e 6b 3d
       -0.083082885 -0.04471953 -0.041132282 0.057493627
000210 ad 96 e3 3d 54 82 77 3d e9 40 9a 3d 93 1f 8c 39
       0.111127235 0.060427025 0.07531912 0.00026726405
000220 a4 5b b0 3c 87 87 09 3e 42 f4 93 bd 1f 9c 54 3d
       0.021528073 0.13430606 -0.07224323 0.0519067
000230 29 af 8c 3b dc ed 23 3d 15 5e 30 3d 14 8c 9f bd
       0.0042933417 0.040021762 0.043058474 -0.0779039
000240 0f 9b 84 bc 91 3c ed bc 08 28 54 b6 c0 4d 8c 3d
       -0.016187219 -0.028959544 -3.1613763e-06 0.06850767
000250 74 db aa bd 30 ef 1f bc 3e 7a 9a 3a 3c c9 ae bd
       -0.083426386 -0.009761617 0.0011785699 -0.08534476
000260 47 87 d8 3d 2f f7 73 3d cc 9c 1a bd d8 3e 01 3c
       0.10572677 0.059561905 -0.03774719 0.007888518
000270 98 b6 c8 3c 74 07 a8 3b d4 9d c6 3d a1 6c 2f bd
       0.02450113 0.0051278416 0.09698072 -0.042828206
000280 60 c6 9b 3d b7 e0 c0 bd 2c ca 36 3d 71 a1 e6 3d
       0.076061964 -0.09417861 0.0446264 0.11261261
000290 7f 49 06 3e 1d cd 00 3d f1 ed 2d 3d bf a2 9e bc
       0.13113974 0.03144561 0.042463247 -0.019364713
0002a0 6b 9c 24 3d e2 f6 34 3d 37 1a f4 3d e9 16 91 bb
       0.040188234 0.04418076 0.119190626 -0.00442778
0002b0 dc 8e ce bd 27 bc 83 bd ec 33 85 3b 26 20 13 3e
       -0.10085842 -0.064323716 0.0040650275 0.14367732
0002c0 8f e8 91 3d 86 a7 dc ba 77 92 fc 3d f6 a3 2d 3b
       0.07124435 -0.0016834594 0.123326235 0.0026495433
0002d0 85 bb 91 bd f2 7a 09 39 15 d9 1b 3c 29 e7 a6 3c
       -0.07115845 0.00013111139 0.009512206 0.020373898
0002e0 69 fc 14 3d 08 14 7b bc 0e d6 65 3d 62 ff 25 3e
       0.03637353 -0.0153246 0.05611234 0.16210702
0002f0 ff 56 71 3d 40 b1 fe 3d b0 2c 80 3c 53 d4 4b bd
       0.058920857 0.124361515 0.015646309 -0.049763035
000300 9a 24 7a ba a8 92 bf 3d 3e 90 4e 3c a4 c8 0a 3d
       -0.0009542197 0.09354144 0.012607632 0.033882752
000310 ba a5 96 3d 7a 77 63 bc fe 7a 87 3d 60 90 1c b6
       0.073558286 -0.013883466 0.06615256 -2.3329849e-06
000320 51 5a 9c 3b e5 7e 51 3d 6f 7a 94 bd bf 4b dd bc
       0.0047715087 0.051146407 -0.07249915 -0.027013658
000330 d9 5d f3 3c cf 48 8d 3a 58 c5 12 bc 69 da 6a bd
       0.029707836 0.0010779145 -0.008958183 -0.0573372
000340 4f 46 63 bd 66 cb 13 3d 3d 39 29 b4 5d 9e e8 bc
       -0.055486973 0.036082648 -1.5760175e-07 -0.028395826
000350 62 e8 1c 3c e7 84 94 3c 1f ea a0 bc 62 2a 53 bd
       0.009576889 0.018129779 -0.019642888 -0.05155409
000360 30 20 30 3c da 20 58 bc 2b 25 5e 3d c3 b2 e3 3b
       0.010749862 -0.013191426 0.054234665 0.0069488003
000370 52 d7 7c 3d d8 80 82 bc ad 4f 8e 3d 84 91 3d bd
       0.061728783 -0.015930578 0.06948791 -0.046281353
000380 ab d1 ac 3b 74 a3 65 3d ab c4 57 bd 31 b9 66 bb
       0.005274018 0.056064084 -0.05267779 -0.0035205598
000390 72 58 14 ba b0 b2 c4 3c 0d cb 49 bc e5 f0 10 ba
       -0.00056589313 0.024010986 -0.0123164775 -0.000552906
0003a0 40 4d e9 3c fb f5 e2 bb d9 cc ff bb 92 3b 95 34
       0.028479218 -0.006926296 -0.007806402 2.7796756e-07
0003b0 23 dc 59 bd 4d 00 70 3c 1c cb 33 bb c7 54 c7 bc
       -0.053188454 0.014648509 -0.0027434295 -0.024332417
0003c0 d8 67 a5 3d 09 bd b0 3c 3a 15 a4 3b c5 9b 8e bc
       0.08076447 0.021574514 0.005007413 -0.017408261
0003d0 a0 f7 6f bc af 9a bd 3b fe 6b d1 bc 4a f5 72 ba
       -0.014646441 0.005786262 -0.02556419 -0.00092681183
0003e0 40 07 09 39 b5 63 a2 3d 00 6c 28 bd 14 71 be b8
       0.00013068039 0.07929174 -0.04111862 -9.0809684e-05
0003f0 1a e9 4b 3c 0f 25 3c 3b 59 54 c4 3b 20 27 d6 3b
       0.012445712 0.0028708612 0.0059915003 0.006535426

decoder_lin.2.bias f4 [288]
000000 3f e6 c2 3c 6d b9 07 bd 2c cb 19 3e 13 e3 ae bd
       0.02379143 -0.03313582 0.1501891 -0.08539405
000010 c1 3e c5 bd 8a 29 7e 33 52 a4 a1 bc 4e 0e 47 3d
       -0.0963111 5.9176763e-08 -0.019731674 0.048597626
000020 9a ee 3f bc 07 d0 d3 3d 16 ce a3 bb 47 3c 84 3d
       -0.011714602 0.103424124 -0.0049989326 0.064568095
000030 54 f5 48 3d 08 19 b7 bd 40 ea ad bc 70 dc a0 bd
       0.049062088 -0.08940321 -0.021229863 -0.07854545
000040 3d 07 81 bd ea 02 c1 bb 2a 27 b8 3c af a5 68 bc
       -0.06300209 -0.00589024 0.022479612 -0.014199658
000050 17 c7 a9 bd a7 c8 83 bc d1 a3 08 bb d0 6b aa bb
       -0.082899265 -0.01608689 -0.0020849595 -0.0052008405
000060 2c 7c 0f bc 5d eb 68 bc fa c9 f8 3b 34 bd a5 3d
       -0.008757632 -0.014216271 0.007592437 0.08092728
000070 50 8f 92 3d 5c 2c 9f 3d 79 b2 1a bd f0 75 cb 3d
       0.07156241 0.07772133 -0.03776786 0.09934604
000080 da 33 04 3c 69 45 05 3e 44 39 a2 3d fe 69 f5 3d
       0.008069003 0.13014759 0.07921079 0.11983107
000090 12 13 94 bb 45 f6 67 bd d9 f6 cf 3c a9 90 e8 34
       -0.004518875 -0.056631345 0.02538626 4.3318622e-07
0000a0 5a 60 89 3c 6f 94 27 3d e3 3f ac 3d 84 e7 ea 3d
       0.016769577 0.04091304 0.08410623 0.11469939
0000b0 6d 4b f3 3d f7 1d 46 3d 03 be 33 bb 9f 24 7e bc
       0.11879621 0.04836842 -0.0027426488 -0.015511661
0000c0 29 40 9f bd f9 fe 4b bc c7 1e f5 bd da 70 6a 3c
       -0.077759095 -0.012450927 -0.11968761 0.0143091325
0000d0 93 a9 64 3c a6 84 39 3c 89 c5 a1 bb 60 a4 19 bd
       0.013956445 0.01132313 -0.004936878 -0.037510276
0000e0 76 f0 d3 3c ef 52 84 3d 4e 0c e1 bc 51 02 ab 3d
       0.025871497 0.06461131 -0.027471688 0.08350051
0000f0 2b 7b a7 3d 91 05 03 3d 6f 00 a0 bb 56 1d 8d bd
       0.08177789 0.03198773 -0.004882864 -0.06890361
000100 a1 8d d6 3d 4d 02 23 3d d0 be 5e bd 34 79 ff 3b
       0.10476232 0.039797116 -0.05438119 0.007796431
000110 bf b8 fd 3d 83 ca b3 3d 55 c4 a1 bc c8 0b a6 ba
       0.12388753 0.087788604 -0.019746939 -0.0012668306
000120 da 90 aa 3d 89 2e 60 3d 5e e8 8b 3b 25 52 e7 3d
       0.083284095 0.05473188 0.0042696437 0.11294965
000130 91 02 a4 3d 94 08 f2 3c 93 11 82 3b 5a 6d 45 3a
       0.08008302 0.029545106 0.00396938 0.0007531248
000140 ff 77 84 bc 26 ed 00 3d 43 6d a4 bc 70 00 1d ba
       -0.0161705 0.031476162 -0.020071631 -0.000598914
000150 d1 4a 29 bd 42 d5 1f 3c 83 6e 4a bd 1c 83 bf 3d
       -0.041331116 0.0097554345 -0.0494218 0.09351179
000160 19 44 26 3d 1b 0b 48 3d f5 fd 2c bd 07 12 0a bb
       0.040592287 0.048838716 -0.04223438 -0.0021067874
000170 53 1e f4 3a 97 55 56 bc 3e ad 8f bb 1b 46 a9 3d
       0.001862476 -0.01308193 -0.0043846657 0.08265325
000180 71 c4 ab 3d 95 0b 0c bb 6f a8 d9 3b c8 20 ab 3c
       0.083870776 -0.0021369208 0.0066423933 0.020889655
000190 03 cf fb 3b ae 9e 9a 3c 62 cf 09 3d 4b 5b 40 3c
       0.00768459 0.018874492 0.03364504 0.011740516
0001a0 bd 71 86 3c 6f 7a f4 3d 92 5e 8a 3d dc b1 bc 3d
       0.016411657 0.11937415 0.06756319 0.092136115
0001b0 43 0c a7 3d 3f 8e 64 3d 7b 40 d0 3c 9b ae a3 3c
       0.081566356 0.05579972 0.025421372 0.01998072
0001c0 5f 1d 83 bc 9f 52 da bd d8 24 d5 bb 0a e2 98 bd
       -0.016005216 -0.1066029 -0.0065046363 -0.074649885
0001d0 3d 55 eb 3c 2a 3f f0 3b eb 32 ca bc 48 17 94 3d
       0.028727168 0.0073317485 -0.024682483 0.07231003
0001e0 72 11 e1 3b 34 c0 e5 3d fc 95 6c 3d 57 74 3b bd
       0.0068685347 0.112183005 0.057760224 -0.045765247
0001f0 85 82 87 bd 1f 06 35 bb 63 f4 93 3d 70 ff 64 3d
       -0.066166915 -0.0027622057 0.072243474 0.055907667
000200 dc 53 07 bd 9d 34 21 bd e8 04 d5 bd 74 6c c1 bd
       -0.03303896 -0.039356817 -0.104013264 -0.09444514
000210 97 15 2f b9 e3 8f ea 38 48 76 0d be 52 72 dd 3d
       -0.00016697343 0.000111847905 -0.13814652 0.108128205
000220 67 c9 e9 3d 64 5d 0c bd 8a 24 c9 3d 8a 71 d4 3d
       0.114153676 -0.03426875 0.098214224 0.10373218
000230 6b 3c b6 bb b9 3b ad 32 7a 2e 92 3d 49 96 63 bd
       -0.0055614016 2.016701e-08 0.07137771 -0.055563245
000240 62 5f 35 bd d4 e2 be bd aa fa ed bd 04 46 54 bc
       -0.044280417 -0.09320608 -0.11620076 -0.012956146
000250 53 ba 8e bb 85 54 20 bd 39 1b c8 3d b2 de 10 3d
       -0.0043557077 -0.039143104 0.09770817 0.03536863
000260 eb af 0c ba 03 99 32 bd 76 fe b8 bc 81 b8 82 bd
       -0.000536679 -0.043602955 -0.022582274 -0.063828476
000270 bc c1 c1 33 59 f3 10 3d 8f 14 6b 3d 51 13 a5 3d
       9.022503e-08 0.035388324 0.057392653 0.08060325
000280 cc dc 13 3c 73 40 24 3d 23 cf d0 bc 17 0f 50 3c
       0.00902481 0.040100526 -0.025489395 0.01269891
000290 1d 48 5d 3d 6b d4 d6 bb 23 fa 84 3d 65 b9 96 3d
       0.05402385 -0.006556084 0.06493022 0.0735958
0002a0 7c b8 34 ba f6 b9 39 bd 7a 76 2e 3c cc 46 2e bc
       -0.00068939454 -0.04534336 0.010648364 -0.0106369965
0002b0 be e6 73 bc d8 5c 91 bc c9 3a 01 3e 5b 67 b5 3d
       -0.014886556 -0.017744467 0.12620081 0.08857604
0002c0 3f 39 4c 3c 74 55 3f 3d a6 8a d2 bc 1a a0 e6 3c
       0.01246482 0.046712354 -0.025700878 0.028152514
0002d0 13 89 58 bb 6a fa 2f bd fd f1 19 bc 5a f8 39 3d
       -0.0033040687 -0.042963423 -0.009396073 0.045402862
0002e0 ee a2 cb bd 20 5c b7 b2 7e 10 a2 3c 18 6a 39 3d
       -0.09943186 -2.1345897e-08 0.019783255 0.045267195
0002f0 75 1c 2d bc 0f 0f 32 3c b4 5d ec 3d 50 ff 11 3c
       -0.010565867 0.010867848 0.1154131 0.008910969
000300 75 4d a3 3a 77 d3 d2 3c ec e1 ba 3d 8c 39 10 3e
       0.0012458997 0.0257356 0.091251224 0.14084452
000310 c8 72 66 b6 a4 d1 e9 3d 18 49 27 bd ec ac 23 3d
       -3.4339482e-06 0.11416939 -0.040841192 0.039959833
000320 ce 67 86 3b 4e 4e c6 bd 65 6f 0f be 58 e4 30 bd
       0.00410173 -0.09682904 -0.14007337 -0.043186516
000330 71 e4 ee bc f6 b8 7a 3d 71 ba 97 3d dd 7e bc 3c
       -0.029161664 0.06121155 0.07408608 0.023009712
000340 4c 36 5a bd 61 d8 02 be a3 3f 87 bb 0c 6c d3 3d
       -0.053274438 -0.12777855 -0.004127459 0.10323343
000350 1b 41 3c bd ce 4a c4 bb ff ad 71 bd 04 e3 24 bd
       -0.045960527 -0.0059903627 -0.059003826 -0.04025556
000360 13 e3 3d 3c 11 a8 e5 bb e8 04 4b 3d 58 12 cc 3d
       0.011589783 -0.0070085605 0.049565226 0.09964436
000370 a2 a9 d8 3b 65 48 58 3d f0 f7 f7 bb 5f e4 85 3d
       0.0066120187 0.052803416 -0.0075673983 0.06537699
000380 91 ab 02 3d bf b3 e0 3d d8 69 b9 bd 5a c5 b3 3b
       0.0319019 0.10971784 -0.09053391 0.0054861726
000390 c2 c3 84 3d 5d ec 33 bc f2 1d 5a 3d 62 3d e6 bc
       0.0648265 -0.010981646 0.053251214 -0.028105441
0003a0 5f 72 95 bb d6 b6 70 3d 94 6c 22 bd 45 f1 9e 3d
       -0.0045607532 0.058768116 -0.03965433 0.07760862
0003b0 c0 0e 0f 3e e7 6f 9b bc 78 5e 95 3b 00 e6 8b bd
       0.1397047 -0.018974258 0.0045583807 -0.068309784
0003c0 df 5e aa bb ad 56 1b bd 48 ea 91 3c 19 12 08 3e
       -0.005199298 -0.037924457 0.01781191 0.13288154
0003d0 b9 bb ee 3d 43 61 f7 bc af 1c bc bc 9d b4 6d 3d
       0.11656899 -0.030197745 -0.022962896 0.058033574
0003e0 e6 84 d1 3c ab 4e 11 3e d4 9e fa 3d 24 eb 33 bc
       0.025576066 0.14190166 0.12237325 -0.010981355
0003f0 91 bb 01 3e e9 70 d1 3c 30 5d 0b bd 86 fd 8e bc
       0.12669207 0.025566535 -0.034024417 -0.017454874

decoder_conv.0.weight f4 [32, 16, 3, 3]
000000 ac 3b 62 bd bd 94 c5 bd 77 a5 38 bd 09 5e d9 bc
       -0.05523269 -0.0964751 -0.045079675 -0.026534097
000010 08 4c 9d 3d e9 62 7e bd 6e a1 b2 bd 1f bf 95 bd
       0.076805174 -0.062106047 -0.087221965 -0.07311844
000020 96 0c 6b bb fa 26 e2 3d 20 ef 03 3e 9c 29 7f 3d
       -0.0035865656 0.110425904 0.12884188 0.06229554
000030 fc 95 9c 3d a0 35 be 3d 7b 0e 47 3b d6 73 33 bd
       0.07645795 0.09287572 0.0030373621 -0.04381164
000040 29 c3 af bb b9 9a 8b bd 76 d6 77 3d 0d 8d a4 3d
       -0.005363841 -0.068166204 0.06050726 0.08034716
000050 de 30 4c 3d 26 34 e2 bc 80 28 d7 bb a1 ff df 3c
       0.04985129 -0.027612757 -0.0065661073 0.027343573
000060 5e 29 84 bd ad de b1 bd fe 76 14 bd bf ce 58 3c
       -0.06453203 -0.0868505 -0.036246292 0.013232886
000070 03 be 23 3d 30 45 bf 3d 6b 31 d9 3d 39 b5 2d bc
       0.03997613 0.09339368 0.10605129 -0.010602289
000080 8f 52 5d 3c 6c 80 3b 3c 09 4b 22 3d 13 b0 5f bc
       0.013508453 0.011444192 0.03962234 -0.013652819
000090 96 b2 a9 3c ae b3 b1 3c 57 24 a2 3d 77 13 da bc
       0.02071504 0.021692123 0.079170875 -0.02662061
0000a0 16 d1 e6 3c 5c 01 1c bd 28 96 98 3a bb 96 9a bd
       0.028175872 -0.038087234 0.001164143 -0.07548281
0000b0 44 77 45 bd 03 91 72 bd 5b a5 51 3d 1a a4 99 bc
       -0.048209444 -0.059220325 0.051183086 -0.018755008
0000c0 8a 81 91 3b e1 2c 8d bd aa 95 89 bd 95 39 4f bd
       0.004440491 -0.068933256 -0.06717999 -0.050592024
0000d0 b4 e0 b3 3a 30 b2 78 3d 09 df 49 bd 3a 6f b1 bd
       0.0013723583 0.060716808 -0.04928497 -0.08663793
0000e0 a9 2e b9 3c 49 06 42 3d 41 00 c2 3a e5 f6 08 bd
       0.022605257 0.047369275 0.0014801101 -0.033438582
0000f0 ad f3 b4 bc 9a 19 32 3d 30 5b 16 3d e8 15 3d bd
       -0.02208885 0.043481447 0.036708057 -0.04616347
000100 f4 ee 29 3d f9 ea 26 bc de c6 09 bd e5 cc 14 bd
       0.04148765 -0.010187858 -0.03363692 -0.036328215
000110 86 e8 f9 3d 67 73 7d bc ae d5 96 3d 8e 84 f1 bc
       0.122025535 -0.015469409 0.07364975 -0.029482152
000120 2d a1 9c bc 7f 48 51 3d c7 bd a0 3d 8f 74 b1 3c
       -0.019119823 0.05109453 0.07848697 0.021662025
000130 0e 09 3e bd 4d 19 72 bc 47 fa 96 bc f4 95 05 3d
       -0.046395354 -0.01477654 -0.018429888 0.03261371
000140 57 9a 35 bd d9 0a f2 3b cd c1 2a 3c d1 d2 da 3d
       -0.044336643 0.007386547 0.010422182 0.10684741
000150 14 f8 a5 bc 2d 01 fd 3c 4d 80 28 bc 5b 9c a1 3d
       -0.020259894 0.03088435 -0.010284496 0.078911506
000160 f4 19 c6 3b 07 02 4e 3d 4e 9b 1f 3d 08 79 08 3c
       0.0060455743 0.050294902 0.03896647 0.008329637
000170 23 c7 a0 bc 72 92 10 bd 62 64 44 bb b2 9f 3f bc
       -0.019626206 -0.03529591 -0.002996706 -0.011695789
000180 88 d9 18 bd 26 08 3a 3d cb e4 06 bd 0c 39 97 3d
       -0.03731683 0.045417927 -0.032933038 0.07383928
000190 91 88 7d 3c 64 00 71 bc 8c f8 11 3d ac 42 9d 3d
       0.0154744545 -0.014709566 0.035637423 0.07678732
0001a0 d8 83 c1 bc cd 14 8e 3d f2 8c 81 bc 9b 26 4c 3d
       -0.023622438 0.06937561 -0.015814278 0.049841505
0001b0 c1 62 c7 3d ec 0b 86 3d c3 7c 06 3e f9 12 af 3d
       0.09735633 0.06545243 0.1313353 0.085485406
0001c0 f9 02 64 3c fe 15 02 bd fb 53 92 3c 11 5b 6b bd
       0.013916724 -0.031759255 0.01786231 -0.057459895
0001d0 00 18 7c bc b0 fe 1e bd eb 93 ca 3b 7c f4 4b bd
       -0.015386581 -0.038817108 0.006182184 -0.049793705
0001e0 28 b3 a5 bd 37 78 11 bd ee 3f c8 3c 2b 3f ce bc
       -0.08090812 -0.035515036 0.024444547 -0.025176605
0001f0 9e 29 c2 3b 22 a2 ab bd ca 9d b7 3c e3 0a a5 3d
       0.0059253713 -0.08380534 0.022414107 0.08058717
000200 23 0c 38 3d d2 ae 92 3d 90 70 a2 3a b3 ef f4 bc
       0.04493345 0.071622506 0.0012393165 -0.029899454
000210 26 d6 76 3d 46 26 86 bd cb 5f 78 3d 43 06 c2 3d
       0.06026282 -0.06550269 0.06063823 0.094738506
000220 43 83 0e 3e 8c 58 a0 3d a1 89 b5 bb 3f 14 c0 3a
       0.1391726 0.07829389 -0.0055400883 0.0014654471
000230 a7 4f ba 3b 0d e8 98 bd 54 ed 4a 3c da 22 c4 3c
       0.005685765 -0.07466135 0.012385685 0.0239424
000240 bd 91 08 3d b0 7b 3a 3c c5 b2 1a bd 7b bf 9b 3d
       0.03334211 0.011382028 -0.037768144 0.076048814
000250 d0 94 4d b8 34 b5 c7 39 cf 4d 10 bc 55 49 af bd
       -4.90144e-05 0.00038091245 -0.0088076135 -0.08558909
000260 9f c6 8d bd 67 b2 c5 3d 3e 20 21 3d 02 8c 96 3d
       -0.069226496 0.09653168 0.03933739 0.07350923
000270 dd 2e 18 ba 57 f2 2f 3d 05 ed 89 3c 2e 4b 1e bd
       -0.0005805323 0.042955723 0.016836653 -0.038645916
000280 65 09 18 3d 09 66 4d 3d c4 09 1e 3c 26 49 74 3d
       0.037118334 0.050146136 0.009645883 0.059640072
000290 01 2a 95 3d 9a fb 30 bc 51 a6 0f bd 7f e7 c4 3c
       0.07283402 -0.010802174 -0.03507072 0.024036167
0002a0 56 23 7d bc 00 06 97 3d 36 80 0c 3c 3e 57 82 3c
       -0.015450319 0.07374191 0.00857549 0.015910741
0002b0 f9 a3 b0 3d 6a bc c9 3d 48 07 d3 3d e2 a2 b7 3d
       0.08625025 0.0985039 0.10304123 0.08966614
0002c0 3f a2 63 3c 75 58 b0 3c 23 8f 7b bd 28 8a f9 3c
       0.013893663 0.021526555 -0.061415803 0.030461386
0002d0 bd 84 e8 3d d7 07 98 3d f3 fe bd 3d 6a 6c 84 3c
       0.11353443 0.0742337 0.09277143 0.016164977
0002e0 75 df b8 bb 86 cf 8a bc 98 68 83 3c 4a 3d 4e 3d
       -0.0056418725 -0.016944658 0.016041085 0.05035142
0002f0 c6 21 cd bb 66 bc dc bc b0 1d 2a bd 14 04 d3 3a
       -0.0062601296 -0.026945304 -0.04153222 0.0016099238
000300 55 c0 15 3d 8d bc 1c bd a6 77 66 bd f0 14 5b 3d
       0.036560375 -0.038265754 -0.05626645 0.053486764
000310 4e ad 78 bc df 34 9e 3c 0a fb 29 bc a3 d0 92 bc
       -0.015178038 0.01931232 -0.010374794 -0.017921751
000320 d3 cd b3 bc 12 aa 2a 3d 09 5d c9 3b 98 be b4 bd
       -0.02194873 0.041666098 0.006145124 -0.088254154
000330 06 92 b8 bc dc cf d6 3d b2 04 a5 3d 97 0c 85 bd
       -0.022530567 0.10488865 0.08057536 -0.06496542
000340 d9 f6 cd bb 3a ed 73 bd 12 47 3d bd 6d af d7 3d
       -0.00628553 -0.05955241 -0.046210356 0.10531507
000350 aa 94 66 bd 44 8b 5c 3d b6 e2 7b 3b 7b 26 be 3c
       -0.05629412 0.05384375 0.003843469 0.023211708
000360 b2 e6 2f bd 88 87 97 bb 1f c5 9d 3d ee 74 51 3d
       -0.042944618 -0.004624311 0.077036135 0.051136903
000370 af 60 8c 3d 57 22 3d 3c 81 b5 99 3d 5f 5a 81 3c
       0.068543784 0.011543832 0.07505322 0.015790163
000380 82 c0 9f bc 64 d4 a1 3c c0 5c ff 3b 6b d9 39 3c
       -0.019500975 0.019754596 0.007793039 0.01134334
000390 e1 1e a7 bc fd 68 80 3c e5 8e 9b 3d 0b e9 bb 3c
       -0.020400466 0.015675062 0.07595614 0.022938272
0003a0 c4 9e 82 3c 65 25 0e 3e fb 68 19 bb eb b1 33 bc
       0.015944846 0.13881452 -0.002340852 -0.010967712
0003b0 30 6a af 3c 02 1e 87 bc ca db 9c 3d d1 ce 98 3d
       0.021412939 -0.016493801 0.07659109 0.07461322
0003c0 c3 55 ef 3d e0 37 fd bc 50 a8 8e bd 2a 37 d3 3c
       0.116862796 -0.030910432 -0.06965697 0.02578314
0003d0 e2 a9 83 3d 1f 3d eb 3d 90 25 54 3d 1b 16 2f bd
       0.06428887 0.11486267 0.051793635 -0.04274569
0003e0 dd 29 f5 bc 3c 79 af 3d d6 21 73 3b c8 cc 2d 3d
       -0.029927189 0.085680455 0.0037099025 0.042431623
0003f0 94 db 02 bd 4b 5c 75 3d d8 8d aa 3d 5b 3c b3 3d
       -0.031947687 0.05990247 0.08327836 0.08751746

decoder_conv.0.bias f4 [16]
000000 19 1c 0b 3c 33 51 73 3d ca f0 4e bd 87 ac 7e 3d
       0.008490586 0.05940361 -0.050522603 0.062176254
000010 89 2a 63 3d 42 76 d4 3d e6 77 5c 3c d6 a0 9f 3d
       0.055460487 0.103741184 0.01345632 0.07794349
000020 48 b7 67 3d 4d 37 2c 3d f2 f3 02 3d 6b 45 2e 3d
       0.056571275 0.042044926 0.031970926 0.04254667
000030 e1 52 06 be 91 c3 85 3d cb ab b5 3d 9a 62 f5 bc
       -0.13117553 0.06531442 0.088706575 -0.029954243

decoder_conv.2.weight f4 [16, 8, 3, 3]
000000 c0 93 ea 3c 5b 2f 74 ba 5f b5 12 3d 91 bf 34 3d
       0.028634906 -0.0009314918 0.0358175 0.044128004
000010 38 2e b4 bd 06 46 10 3c c9 95 a7 bd 39 b2 ad bd
       -0.08797878 0.008805757 -0.08182866 -0.08481259
000020 f7 e8 8c bd dc 53 d4 3c 8f a4 74 3c 92 c9 57 bd
       -0.06880372 0.025918894 0.014931812 -0.052682467
000030 96 65 a9 b9 81 e4 07 3e ea 2f 04 3e 2d 07 f8 3c
       -0.0003230988 0.13270761 0.12908903 0.03027686
000040 58 3e a4 3d cc f3 fb bb 79 01 0e 3d 3e 3c 63 3b
       0.080197036 -0.007688975 0.034669373 0.0034673358
000050 ec e9 99 bd de 32 a6 bc fe 74 8d 3d aa 98 ab 3d
       -0.0751532 -0.020287927 0.0690708 0.08378728
000060 38 78 d2 3c 6a bb b2 bd aa ed 8a bd 7b b3 59 3d
       0.02569209 -0.08727153 -0.06783612 0.05314968
000070 53 7a 14 3d e8 17 9b 3b a6 61 4b bd 05 45 a3 bb
       0.03624947 0.0047330745 -0.04965367 -0.004982593
000080 02 bd 00 bd 44 ad 41 3d f3 d9 ac 3d 05 15 0e 3e
       -0.031430252 0.04728438 0.08440008 0.13875206
000090 30 99 b6 bc 95 16 75 bd 88 50 b9 3c fa ac a2 3c
       -0.022289842 -0.05983599 0.022621408 0.019857872
0000a0 f0 6c 30 3e a5 1a 22 3e 97 2d a5 3b ae ec 11 3d
       0.17229056 0.15830477 0.005040835 0.035626106
0000b0 12 5b 8a 3d ad 26 54 bd 74 d4 e3 bc a9 e9 d6 bd
       0.067556515 -0.051794697 -0.027811266 -0.10493786
0000c0 bc 83 b5 3d 44 7e 48 3d 16 b8 9c bd 7b 7c 8e bc
       0.08863017 0.04894854 -0.07652299 -0.017393341
0000d0 1d 7c 66 bd e4 be ab bc 05 ea 86 3b 7d cb 4d 3d
       -0.056270707 -0.020965047 0.004117253 0.05024289
0000e0 cc 53 83 3c d2 1d 48 3d 3f 3f 88 3d 30 81 d9 3d
       0.016031168 0.048856564 0.06652688 0.10620344
0000f0 ef d7 00 3c ba 88 e7 3d 01 93 5a 3e 18 10 c9 bd
       0.007863983 0.113053754 0.2134514 -0.09817523
000100 99 04 0e bd 7a 30 df ba 41 ab 8a 3d f9 8d 10 bc
       -0.034672353 -0.0017027997 0.06770945 -0.008822911
000110 8f c3 f9 3c 11 c3 27 3d 02 bd b7 bc df 76 05 ba
       0.030488757 0.040957514 -0.022428993 -0.00050912605
000120 d7 84 48 bb 1d 1f 1a 3d 94 1e 7a bc 25 0a f0 bc
       -0.0030596757 0.03762733 -0.015266079 -0.029301712
000130 4a 02 7b bd bb 63 45 bd 4a 17 5d bd a5 f8 bf bc
       -0.06128148 -0.048190814 -0.05397729 -0.023433993
000140 1e 84 06 be 8f f8 27 3d d6 ae a6 3d e0 10 cf 3c
       -0.13136336 0.04100853 0.08138816 0.025276601
000150 e9 21 68 3d f9 40 09 3d e6 d5 72 3d c1 f9 d3 bc
       0.056672964 0.03350923 0.05928602 -0.025875928
000160 c0 be 24 3d 09 e2 62 3b 87 38 a5 3d 48 b7 b9 3d
       0.040220976 0.003461959 0.08067422 0.09068161
000170 db 91 ca 3d 59 43 e4 bd 9b 5a 30 3c 47 98 ac 3b
       0.09891101 -0.11145658 0.0107637895 0.0052671763
000180 fc e3 ab bd 85 84 b3 3d 6f d6 b9 bd 0b b0 12 3d
       -0.08393094 0.087655105 -0.09074103 0.03581242
000190 04 38 f1 3d f6 62 24 3d 5c b5 1a 3d 5f 7a 32 3e
       0.11778262 0.04013344 0.037770614 0.17429493
0001a0 14 4d 09 3e f9 e3 40 3d bd 91 e3 3d 95 ab 9e 3d
       0.13408309 0.04709241 0.11111782 0.077475704
0001b0 73 2c af bd 33 9d de 3d ec bf 0b 3d bd 00 1b 3e
       -0.085534 0.10869827 0.034118578 0.15137
0001c0 0d b0 11 3d 56 68 8f 3b 4a 0f c6 3d cb 50 fc bc
       0.035568286 0.0043764515 0.09670885 -0.030800244
0001d0 c0 53 00 3e 97 a8 9f 3d ae 69 92 3d 3a 17 7d bd
       0.12531948 0.07795828 0.07149063 -0.06178973
0001e0 14 a0 9a 3c ee 02 f0 bd 4d 23 9e 3b ea 7f b5 3c
       0.01887516 -0.11719309 0.0048259855 0.02215572
0001f0 1b 9e b5 bd 28 d0 dd bd ea 93 25 bc c4 fc fd bc
       -0.08868047 -0.10830718 -0.010106066 -0.031004317
000200 58 a4 01 3e 6f 7c 16 bd d9 1a 98 bd 98 fd 35 3e
       0.12660348 -0.036739763 -0.07426996 0.1777252
000210 02 cb 96 bd 82 a4 07 3e dc a6 b9 3d 96 22 8b bd
       -0.073629394 0.13246349 0.09065029 -0.06793706
000220 66 39 0f bd 0a 5a cf 3c ec 5a 2b 3d 76 b3 bc bc
       -0.03496685 0.025311489 0.041834757 -0.023034792
000230 41 5e 0f 3d a8 51 9e bd 3c 0f 9c 3d 19 24 c7 3c
       0.035001997 -0.077304184 0.07620093 0.024309205
000240 83 30 16 3b 12 4a 2f bd 29 c2 a9 bc eb 3c d8 ba
       0.0022917099 -0.04279525 -0.020722466 -0.0016497647
000250 ee e7 cf bc be af 73 bc 9f 08 52 bd 7c 74 1e 3d
       -0.025379147 -0.014873443 -0.051277753 0.038685307
000260 c4 2a e9 bc 5c 43 b3 3a 6e 2e 6b 3d 64 97 93 3d
       -0.028462775 0.0013676691 0.057417326 0.0720661
000270 5e 6a 76 3c b1 2b 8b 3d a3 4d cf 3d 26 14 fe bc
       0.015040008 0.06795443 0.1012223 -0.031015467
000280 5b 2c ab 3d d9 c0 e6 3d be d2 88 bd 50 e3 8a bc
       0.083580695 0.112672515 -0.06680821 -0.016954094
000290 3c 7c 6c 3d 8c f1 8f bd a6 52 67 3d 06 08 88 bd
       0.057735667 -0.07028493 0.056475304 -0.06642155
0002a0 27 8a 45 bd 60 e6 71 bc a0 67 a9 3d 79 dd 53 3d
       -0.048227455 -0.014764398 0.08271718 0.051724885
0002b0 e0 88 42 3d a5 f9 92 3d 9b 3b 1a bc bd 87 83 3d
       0.047493815 0.07176522 -0.009413625 0.064223744
0002c0 f6 11 2e 3e c6 62 8f bd 28 d5 ba 3d d3 58 1d 3e
       0.16999039 -0.070012614 0.091226876 0.15365915
0002d0 d0 de 93 bd ee a0 e0 3c c5 ba b0 3d 4a 67 0b 3d
       -0.072202325 0.027420487 0.086293735 0.03403405
0002e0 c7 89 ff 3d dc 54 89 ba 27 cd bd 3d 69 bd b1 3d
       0.12477451 -0.001047756 0.09267645 0.08678705
0002f0 93 c4 bf 3d 81 ee 9b 3d 93 fa d5 38 eb 75 0d 3c
       0.093636654 0.076138504 0.000102033046 0.008634071
000300 78 ba d7 bd 1c 8a 37 bd c2 f6 18 3d 30 cf f0 bd
       -0.10533613 -0.044809446 0.0373447 -0.11758268
000310 dd 49 46 bc f7 65 c9 bd 6e 9f cb bc 44 53 de 3d
       -0.012102571 -0.098339014 -0.024856295 0.108557254
000320 73 9f b7 3d 45 44 d7 bc 18 16 b2 3d a1 5c 56 3e
       0.089659594 -0.02627767 0.0869562 0.20933773
000330 01 12 e0 3c 6b 8a 2b 3e ac d2 ae 3d 88 d2 b4 3c
       0.027352335 0.16752021 0.08536276 0.022073045
000340 39 68 52 bb 4d c9 6f 3d 64 2b 5b bc b0 01 5c bd
       -0.0032105579 0.058541585 -0.013377044 -0.053712547
000350 e8 fc d0 3d 5b 17 0e bd 76 3b a3 3d 13 c7 0e 3e
       0.10204488 -0.034690242 0.07970326 0.13943128
000360 1c 36 11 be 3f a5 c2 3b 7d 91 9b bc 16 11 c7 3c
       -0.14180797 0.005940109 -0.018990273 0.02430014
000370 0a ee 27 3d 77 52 c8 3c b0 4d de bb 5f c6 01 3d
       0.040998496 0.024453385 -0.0067841634 0.031683322
000380 fa 86 8a bb 6c a1 10 3d 38 22 a3 3d 74 34 72 3d
       -0.0042275162 0.035310194 0.07965511 0.059132054
000390 8f 01 11 3b 49 64 d5 3d 28 21 3a 3d d6 3c bf bc
       0.0022126173 0.104195185 0.045441777 -0.023344439
0003a0 22 b0 98 3d ca c9 89 bc d0 6c 0d be 2e 5c e8 3b
       0.0745547 -0.016819853 -0.1381104 0.007091067
0003b0 32 7b 39 3d 8d ca 07 be 87 5e c5 bd b3 b0 ae bd
       0.045283504 -0.1326086 -0.0963717 -0.085297965
0003c0 b0 ad fb bd 69 ee 72 bd 2f c2 2e 3c 3f c0 b9 3d
       -0.12288988 -0.059309397 0.010666414 0.09069871
0003d0 be 65 05 3d e1 8e b0 bb 94 60 b7 bc 64 9e 21 3e
       0.032567732 -0.0053881262 -0.02238492 0.15783077
0003e0 ad 6a 13 3d c4 92 66 bd 7d bb 20 3d 7d ab 31 3c
       0.035990406 -0.05629231 0.039241303 0.010844109
0003f0 f8 fa b6 bc 54 2a fc 3c 00 a1 fb 3a ea 66 97 39
       -0.022336468 0.030781902 0.0019197762 0.0002887764

decoder_conv.2.bias f4 [8]
000000 7a 12 ac bd 99 5f 29 be 38 c6 a5 3d 24 9e ba 3d
       -0.084019616 -0.16540374 0.08094448 0.09112194
000010 85 2f 00 3d cb 7b 3f bd c2 7a ee 3d 16 b0 e8 bd
       0.03129532 -0.046748918 0.11644508 -0.11361711

decoder_conv.4.weight f4 [8, 1, 3, 3]
000000 71 49 41 bd 01 38 3a be 60 38 24 be 24 eb 04 be
       -0.04718918 -0.18185426 -0.1603713 -0.12980324
000010 54 69 31 3e a6 fa 78 3e 9b b5 ba 3e 31 fa 78 3d
       0.17325336 0.24314365 0.3646668 0.060785476
000020 b8 c0 0f be 1b ec 28 3e 38 0c 25 3e 03 c4 3a be
       -0.1403836 0.16496317 0.16117942 -0.18238835
000030 d7 2e 88 bd 6a ed 6c be 1b 2b b7 bd 31 a9 c9 3c
       -0.06649559 -0.23137441 -0.089437686 0.02461681
000040 a0 63 b7 be 22 ce 40 3d a9 85 a6 be 9e 7c d0 bd
       -0.35818195 0.047071584 -0.3252385 -0.10180019
000050 44 f8 b4 be da dc c4 3d eb 66 8d b8 7b 16 bd bd
       -0.35345662 0.096124366 -6.742574e-05 -0.092328034
000060 80 75 d4 bd db a5 5c 3e 2d 4f a5 bd 53 95 21 be
       -0.10373974 0.21547644 -0.08071742 -0.15779619
000070 3e 8d 0c be e1 f3 86 be 43 5d ab be 40 a8 ba be
       -0.13725755 -0.2635794 -0.3346959 -0.3645649
000080 c8 97 8b be 9b 64 9d be 1e df 47 be 5e e5 60 3e
       -0.27264237 -0.30740818 -0.19518706 0.21962497
000090 9f f5 23 be 2b be fb bd 3e a1 e5 3c 9d 8e 2b be
       -0.16011666 -0.12292131 0.028030988 -0.16753621
0000a0 e5 8a 4a be 4d 98 ee bc 35 bb 98 be 41 74 7e be
       -0.19779547 -0.029125357 -0.29830328 -0.24849035
0000b0 0c 64 13 3d 34 38 33 be eb 80 f1 3b 8a dc 8a be
       0.035984084 -0.17501909 0.0073701045 -0.27121383
0000c0 1b 7c a1 be 81 47 77 3e 9d 3f 9a be 2d e8 01 3e
       -0.31539997 0.2414837 -0.30126658 0.12686224
0000d0 79 15 7f 3e 6c 56 1c 3e 17 5a 09 3e be 49 3c bd
       0.24910535 0.15267342 0.13413273 -0.045968764
0000e0 12 55 41 bd 08 79 87 3e 56 f2 9b bc 6a 55 73 be
       -0.04720027 0.26459527 -0.019036453 -0.23763052
0000f0 1e fa 84 bd 58 14 a2 be 45 2d ae be 36 2a 4b be
       -0.064930186 -0.31656146 -0.34018913 -0.19840321
000100 0f 1b 2f 3e 6b 3b 56 be b7 e4 7d be df 3f c3 be
       0.17100166 -0.20921104 -0.24794279 -0.38134667
000110 7c 71 bb be 04 0e 29 be ed 20 f2 3c 96 a5 a3 be
       -0.3661002 -0.16509253 0.029556716 -0.3196227
