HW2/encoder_params.pth (torch, 101127 bytes, 10 tensors)

encoder_cnn.0.weight f4 [8, 1, 3, 3]
000000 70 eb d0 bc 8f 0b 08 3e 21 c5 8e be 4c 83 7e be
       -0.02550289 0.13285659 -0.27884772 -0.24854773
000010 68 be 09 be 65 64 3b 3d 3b b8 d7 bc 5f 20 5d 3e
       -0.1345154 0.04575004 -0.026332965 0.2159438
000020 da 71 20 bd 7b 7b 56 3d 4b 4c d6 bd 1f 55 8a bd
       -0.039171077 0.052363854 -0.104637705 -0.06754517
000030 38 a2 a3 be 7a c5 65 be 44 c9 0e be 7e 10 2c bc
       -0.319597 -0.22438613 -0.13943964 -0.010501979
000040 14 9f bd 3d e2 3b 25 3e 99 1c 5f be ab b6 0b be
       0.09258857 0.16136125 -0.21788253 -0.13643901
000050 34 39 ca 3d da 8a 7e 3e eb 2f 74 bd 36 85 64 3e
       0.09874192 0.24857655 -0.05961601 0.22316441
000060 a5 2a 39 bd b7 4c b8 3c 75 b8 8c 3e f7 9d 8c be
       -0.045206685 0.022497518 0.2748448 -0.27464268
000070 3b eb 3a be 5c 2b 42 bd fc 0f bb bd 97 cd 8b 3e
       -0.18253796 -0.047404632 -0.09133908 0.2730529
000080 67 c4 30 be 01 38 f1 bd 59 49 51 be e5 83 8c be
       -0.17262422 -0.1177826 -0.20438136 -0.27444378
000090 79 5c 46 be ca 71 73 3e 80 52 d8 3d 55 dd f9 3d
       -0.19371213 0.23773876 0.105626106 0.12200419
0000a0 86 44 84 bc 55 48 2d be 49 71 a8 3c 52 71 9f be
       -0.016145956 -0.16922124 0.020561831 -0.31141144
0000b0 5f 33 73 be e7 db e2 bd 9b 5c 72 3e 23 be 62 3e
       -0.23750065 -0.11077099 0.23668139 0.22142844
0000c0 a6 f3 b1 bd 16 38 52 3d 1e 30 74 3e 20 f7 b3 3e
       -0.086890504 0.05132302 0.2384648 0.3514948
0000d0 23 5c 23 3e 18 6b 9a 3d 2a 39 35 3e c9 d0 20 be
       0.15953116 0.07539958 0.17697588 -0.15704645
0000e0 cd d1 20 3d 7a 09 8d be e4 38 63 be b7 eb 19 be
       0.03926258 -0.27546293 -0.22189671 -0.15031324
0000f0 2b c1 c5 3d e2 b4 b0 3d 1e 87 2e be 17 6e 03 3e
       0.096559845 0.08628251 -0.1704373 0.12834965
000100 e5 89 5a 3e 4d 6e dd 3c 6e 7a 32 3d a1 a9 dc 3d
       0.21341665 0.027030135 0.04357379 0.10774542
000110 29 6c 6f 3e 22 16 b0 3e 71 a7 3e be 6e 80 58 bd
       0.23381104 0.34391886 -0.18618561 -0.052856855

encoder_cnn.0.bias f4 [8]
000000 2f 5f 2d 3e f4 99 a3 3e a3 7f a0 3e 61 cc b4 3e
       0.16930841 0.31953394 0.3134738 0.3531218
000010 eb df 07 3e b8 8e 55 be 38 d7 c5 3d 34 2d fa bd
       0.13269012 -0.20855224 0.0966019 -0.12215653

encoder_cnn.2.weight f4 [16, 8, 3, 3]
000000 4b d6 84 3b 5e e8 20 3e 2a 5a 14 3e f8 7d 10 bc
       0.004053866 0.15713641 0.1448752 -0.008819096
000010 fc 19 9f 3d c4 34 9c 3d 8c 66 8d 3d 10 5e 3b 3d
       0.07768628 0.07627252 0.06904325 0.045744002
000020 0d 63 c8 3d fd fc 0e 3d b0 d9 db 3d 58 6a f1 3d
       0.097845174 0.034909237 0.1073488 0.117878616
000030 ac 45 00 3e 17 87 c9 3d dc 09 5f bc b4 44 bd 3c
       0.12526578 0.098402195 -0.0136131905 0.02310405
000040 59 93 e4 3d 2d 26 b2 3d eb 20 a2 bc 0b 2c 19 3c
       0.11160917 0.08698688 -0.019791087 0.00934888
000050 20 d9 00 3e 14 f0 b2 3d 7d 40 b2 3c 9c cd 09 3d
       0.12582827 0.087371975 0.021759266 0.03364335
000060 78 fa 2a bd ee 7a 50 3d ab ea f0 bc 09 47 ee 3c
       -0.041742772 0.050898485 -0.029408773 0.029086607
000070 e2 59 cf 3d a1 db c9 3d cc 87 78 3d 9b 3f 08 3e
       0.10124566 0.09856344 0.06067638 0.13305514
000080 df 68 36 3d 3a d3 22 3e c6 2a 16 3e d5 89 b3 3c
       0.044533607 0.15900889 0.14664754 0.02191631
000090 95 bc 8e 3d 87 e5 a2 3d 51 fc a9 3d 85 74 a5 3d
       0.06969563 0.07953935 0.08300079 0.08078865
0000a0 31 9c d6 3d fd b8 bc 3d 60 53 57 3d 16 ed ed 3d
       0.1047901 0.09214971 0.052569747 0.11617486
0000b0 7d 14 4e 3b 3a 2d b4 bd 4b da 92 bd 48 b8 99 bd
       0.0031445317 -0.08797689 -0.07170542 -0.07505852
0000c0 bc 10 58 bd 12 10 de bd 13 0c 69 bd e8 89 07 bd
       -0.052750334 -0.10842909 -0.05689628 -0.033090502
0000d0 cb 16 c7 bd 4a 02 98 bd b2 ae 13 3e 84 ac ca 3d
       -0.09721144 -0.074223116 0.1442211 0.09896186
0000e0 90 56 cf 3d f6 57 c2 3d e0 6b ba 3d f6 b0 08 3e
       0.10123932 0.094894335 0.09102607 0.13348755
0000f0 fe f8 29 3e cd ec 06 3e 38 4c 29 3e 1b cc 3e bd
       0.16598889 0.1317627 0.16532981 -0.04658137
000100 3f f5 12 be 79 4a ab bd 4b c3 06 3b 32 3c 57 bd
       -0.14351366 -0.08363814 0.002056318 -0.05254764
000110 08 14 89 bd c1 20 a8 bd 81 d2 fa bd 5d 58 f1 bd
       -0.06693274 -0.08209372 -0.12247182 -0.11784432
000120 c1 37 15 3d a5 4f bb 3d ac 03 ba 3d 1e c4 59 bd
       0.036430124 0.0914605 0.090827316 -0.053165548
000130 4f b2 ca 3d 98 27 05 bd a6 b0 13 3d 79 02 51 3c
       0.09897291 -0.032508463 0.036057137 0.012756937
000140 c5 af 18 3d 6e 60 29 3d f6 e3 28 bd a7 63 1a bd
       0.037277002 0.04135173 -0.041233025 -0.037692692
000150 e4 68 3a 3d e4 45 80 3d 8b f4 21 3c a5 6e a8 3d
       0.045510188 0.062633306 0.009884964 0.08224229
000160 b3 71 2a bd ec b1 61 3d 7d fe e1 3d 77 86 c9 bc
       -0.04161234 0.05510132 0.11034868 -0.02460025
000170 dd da e5 3d 88 28 85 3d c7 b6 a7 bd 9e b7 c3 3d
       0.112233855 0.06501871 -0.08189159 0.095565066
000180 33 ff 17 3c c7 09 e5 bc 46 3b d7 3d f7 ab bb bc
       0.009277153 -0.027958764 0.105093524 -0.022909148
000190 70 b4 7a 3d 3b e3 3b 3d ff b0 f9 3d ea e2 97 3d
       0.061207235 0.045871 0.121919625 0.07416327
0001a0 2c 86 c1 3d d4 02 ab 3d 8f 67 2b 3d 5d 25 38 3d
       0.094494194 0.08350149 0.041846808 0.044957507
0001b0 8b 07 e6 bc 40 5e c1 3d 95 54 f9 3d 5f ab e4 3d
       -0.028079769 0.09441805 0.12174336 0.11165499
0001c0 79 82 80 bc 4f a0 64 3d 6c 0b 98 bc 7c df 2a bb
       -0.015687214 0.055816945 -0.018560134 -0.0026073148
0001d0 26 58 e4 bb 56 72 97 3c a9 b7 95 bd 22 06 b3 bb
       -0.006968516 0.018487137 -0.07310421 -0.0054633776
0001e0 28 3e ff b9 c1 3c 2c 3d d5 aa ba bd da 5d ad bd
       -0.000486837 0.042050127 -0.09114615 -0.084651664
0001f0 cd 77 8f bd c5 0b 43 3d 93 71 2a 3d 7d cd 0d 3e
       -0.07005272 0.047618646 0.04161222 0.13847919
000200 8c 30 ac 3d e3 e9 8d 3d 73 99 91 3d 56 cf 5f 3d
       0.08407697 0.06929376 0.07109346 0.05464109
000210 6b 2c 87 3d c4 fd 5c 3d 66 3a 80 3d ff 27 c5 bb
       0.06600269 0.053952947 0.062611386 -0.006016731
000220 31 6e cb bd 41 21 8a bd 26 d8 45 3d ea cf d1 bd
       -0.09933127 -0.06744624 0.04830184 -0.102447346
000230 fc c6 75 bc 13 2c 90 3d 04 0b bd 3b ec b3 2c bb
       -0.015001055 0.070396565 0.0057691354 -0.002635236
000240 7d 29 51 bc 80 f1 c6 3d 51 01 bf 3a 60 56 45 3d
       -0.012766239 0.09714031 0.0014572536 0.048178077
000250 b5 55 1c 3d 88 c7 56 3d 07 f8 6e 3d 9e d0 04 3e
       0.038167674 0.05243638 0.058342006 0.12970206
000260 0e 03 5b 3d d9 be 15 3e 8f 23 e6 3d ce 4a 2f 3c
       0.05346971 0.14623584 0.11237251 0.010698987
000270 8d 8d bd 3d 80 be d2 ba 4b fe f0 3c 5c 68 9b 3d
       0.09255514 -0.0016078502 0.029418131 0.07588264
000280 34 7b 9d 3d 1c d7 ff 3d a0 89 44 3c e1 d2 6d 3c
       0.07689515 0.12492201 0.011995703 0.0145156095
000290 f6 2f 81 3d bd 81 79 bd d3 7b b8 3d 69 29 4b bd
       0.06307976 -0.060914744 0.090079926 -0.04960004
0002a0 1a 2a 95 3c 1b 7e df 3b 2b f0 9a bc 5f fa 97 3d
       0.018208552 0.006820453 -0.01891335 0.07420801
0002b0 24 29 15 3e d5 11 70 3d c8 be c6 3c 24 90 3c 3d
       0.14566475 0.058610756 0.024260893 0.0460359
0002c0 94 fc ba bc 24 cc d6 3d 90 a5 18 3d 91 98 89 3c
       -0.022825517 0.104881555 0.037267268 0.016796382
0002d0 49 3d aa 3c 25 14 d6 3d 6a ab cf 3d 7a 89 07 3e
       0.020781176 0.10453061 0.101401165 0.13236037
0002e0 69 7f af 3d 9c eb 44 3d fb f2 6c 3d 18 b8 a7 3d
       0.085692234 0.048076257 0.05784891 0.0818941
0002f0 1f c0 0e 3e b7 80 f6 bc 06 66 7f bd cb ea 81 bd
       0.13940476 -0.030090673 -0.062353157 -0.06343611
000300 7f 8d f3 bd f4 c4 90 bc 33 c6 96 bd 01 f1 e9 bd
       -0.118922226 -0.01767204 -0.07362022 -0.11422921
000310 5e c3 3f 3d ac 2e ba bd 71 26 b4 3d 65 a6 c7 3d
       0.046817176 -0.09090933 0.087963946 0.09748534
000320 95 69 ac 3d 82 7c fe 3c fc b6 37 3c 6f 6d 15 3e
       0.08418576 0.03106523 0.0112130605 0.14592527
000330 77 e5 af 3d 1a 9e 1d 3e b4 0a 86 3d 70 d8 29 bd
       0.08588689 0.15392342 0.0654501 -0.041466177
000340 fa cc 60 bd 66 8e 26 bd 6c 9b ae bd 50 da 8c bc
       -0.05488298 -0.040663145 -0.08525738 -0.017193943
000350 bb d4 80 bc 2b 51 0a bd 5b c9 21 bd c5 1a ae bd
       -0.015726438 -0.033768814 -0.03949867 -0.085012
000360 5c ee 00 3e 70 e7 0d 3b 9b f5 b9 3d bb 76 4a 3d
       0.12590927 0.002165284 0.09080049 0.049429636
000370 94 91 e2 3c ca 1b 85 3d fb f6 ee 3c 69 07 90 3d
       0.027657308 0.06499441 0.029170504 0.070326634
000380 7a 65 87 3d 6d 59 ad 3a 6a 12 95 3d 70 29 bc 3d
       0.06611152 0.0013225503 0.07278903 0.09187591
000390 1b bf bd 3d 4b 1a 8b 3d 2c ae 21 bc be 41 88 3d
       0.09264966 0.06792124 -0.009868186 0.06653164
0003a0 ee f7 ae 3d 84 33 33 3d 9f a5 0a 3d 38 a1 8b 3d
       0.085433826 0.0437503 0.033849355 0.068178594
0003b0 0e 19 ed bc 66 27 8a 3c a7 9b 30 3d 54 b4 92 3c
       -0.028942611 0.01686449 0.04311719 0.017908253
0003c0 e7 24 61 3c c7 eb 77 3c 55 72 7d bd 7a 2e a0 3d
       0.013741708 0.015131897 -0.061876614 0.07821365
0003d0 3a b4 07 3e 01 eb 1e 3e 40 9c f7 3d 40 9a 9a 3d
       0.13252345 0.15519334 0.12090349 0.07548952
0003e0 26 d1 da 3d da 82 41 3d 3f 46 aa 3b a6 e6 04 3b
       0.10684423 0.04724393 0.0051963623 0.0020279079
0003f0 06 2a 1d 3e dc d1 e1 3d 13 d6 c2 3b 1b 13 c3 3d
       0.15348062 0.110263556 0.00594593 0.095251285

encoder_cnn.2.bias f4 [16]
000000 24 1d 25 3d be 26 4d 3c 79 4a a8 3d 3e 2c d1 bc
       0.040310994 0.012521444 0.082173295 -0.025533792
000010 d5 a0 a9 3d 7d 00 77 3d ce e7 c8 3d dd 6c e2 bc
       0.082826294 0.0603032 0.09809838 -0.0276398
000020 89 ba 4e bd ef c2 c2 3d 68 4a 98 3d 9a 8a 5f bd
       -0.050470863 0.09509837 0.07436067 -0.05457554
000030 e2 79 b2 3c 38 8e af bc d6 08 21 bc 65 18 d9 3c
       0.021786634 -0.02143012 -0.009828767 0.02650089

encoder_cnn.4.weight f4 [32, 16, 3, 3]
000000 fe d4 d0 3d 25 68 9e 3d 0e 48 ab 3d e0 69 01 3e
       0.10196875 0.07734708 0.08363353 0.12638044
000010 2b e4 c9 3d 6e ff 1e 3d 38 09 b8 3d 45 fa b4 3d
       0.09857973 0.038817815 0.08986133 0.088367976
000020 b8 06 d7 3d cb 83 3b bd 70 36 5a 3d 84 23 84 3d
       0.104993284 -0.045779984 0.053274572 0.064520866
000030 d5 60 16 bd a6 e2 d9 3c c2 42 95 3d 68 11 b3 bc
       -0.03671344 0.026597332 0.07288124 -0.021858886
000040 33 ce 07 3d 1d 52 20 3d 8f 0b 86 3d 83 43 f2 3d
       0.03315563 0.03914081 0.065451734 0.11829283
000050 15 56 ce 3d c8 c0 ed 3d 0f 44 a3 3d 09 5d e5 3d
       0.100750126 0.11609036 0.079719655 0.11199386
000060 43 af 5d 3c ab 84 4d 3d 0c d6 84 3d a0 5b 5b 3d
       0.013530555 0.05017535 0.06486139 0.053554177
000070 37 23 c3 3d a9 42 95 3d 11 5b a3 3d 59 46 a7 3d
       0.09528201 0.07288105 0.07976354 0.081677146
000080 30 22 94 3c f4 6b 71 3d da 88 62 3d fd b5 7e 3d
       0.018082708 0.058940843 0.055306293 0.062185276
000090 b4 dd 93 3d d1 8e f6 3c 42 7a 0e 3d 5f 8f d3 3d
       0.07220021 0.030097397 0.034784563 0.1033008
0000a0 0e 2a 3f 3d 2b ff 25 3c c7 d9 b6 3d 2f af ba 3d
       0.046670966 0.010131638 0.089282565 0.09115445
0000b0 36 b3 21 3d 22 32 28 3d e9 c3 c1 3b 93 11 a3 bb
       0.03947755 0.041063435 0.005913247 -0.0049764602
0000c0 54 4f 9e 3d 6e e3 4d 3d 79 67 d8 3d cc 76 49 3c
       0.077299744 0.050265722 0.10566611 0.01229639
0000d0 d3 74 82 3d 08 35 75 3d 67 38 95 3d 63 8f cd 3d
       0.06369939 0.059865028 0.072861485 0.100371145
0000e0 e7 6e b0 3d b9 96 a8 3d 53 d6 3e 3d 41 ba ce 3c
       0.08614903 0.08231873 0.046591114 0.025235297
0000f0 a3 c2 82 3b 3e fd 82 3d 23 c2 e3 3d 37 fb 8a 3d
       0.0039904877 0.06395958 0.11121013 0.06786197
000100 3d e9 91 3d 03 79 d8 3c 7f 7a b6 3d d7 46 d7 3d
       0.07124565 0.02642489 0.08910083 0.105115585
000110 ac 1b 89 3c d6 ee 19 3d dd 69 e3 3d 58 8a 90 3d
       0.016736828 0.037581287 0.11104176 0.07057637
000120 63 ba 4e 3d 90 a1 42 3d 68 e3 32 3d 59 83 8e 3c
       0.05047072 0.04751736 0.043673903 0.017396616
000130 d8 7b 84 bb e4 3e ae 3d 1f a4 6c 3d 81 8a 2a 3d
       -0.0040430836 0.08508089 0.057773706 0.041635994
000140 e3 13 41 3d 57 5e 4d ba 9b 17 ba 3c ba 5c e4 bc
       0.047138106 -0.0007834187 0.022716334 -0.027876247
000150 16 96 a0 3d 66 fe 5b 3d c7 97 f1 3b 06 5a a1 3c
       0.078411266 0.05370941 0.0073728296 0.019696247
000160 63 a9 66 3d 85 8b 6f 3c 58 27 29 3d 57 fc 32 3d
       0.056313884 0.014620666 0.041297287 0.04369768
000170 1a 77 ae bb d1 43 2b 3d 01 5f 29 3d 81 e2 ae 3d
       -0.0053242566 0.04181272 0.04135037 0.08539296
000180 3d 2e 8b 3c a9 4b cc 3c 88 ee aa 3d 64 8a 12 3a
       0.016989822 0.024938421 0.083462775 0.000559008
000190 de f1 5c 3d bc 24 d8 3d 7c 3d 2b 3d 2c 0a f8 3d
       0.0539416 0.105538815 0.041806683 0.12111315
0001a0 bd 68 e5 3d 5e eb e9 3d 81 ae 88 3d 7a ec e3 3d
       0.11201618 0.11421846 0.06673909 0.11129089
0001b0 7a 48 8f bd 36 9e 76 bd 9d 27 23 bd bd 24 87 bd
       -0.06996246 -0.060209475 -0.0398327 -0.06598804
0001c0 56 0c 35 bd ad 14 e3 bb 71 99 9e bd 08 e4 17 bd
       -0.044201218 -0.006929955 -0.077441104 -0.037082702
0001d0 85 38 34 bd 28 cb 50 bd e1 e2 4b bd 5d e2 48 bd
       -0.043999214 -0.050974995 -0.049776915 -0.049044
0001e0 1f 1b db bd 61 16 fc bc e3 24 91 bd a5 1c 34 bd
       -0.10698532 -0.03077239 -0.07087114 -0.04397263
0001f0 87 c0 dd bd f6 fc 56 bd 1f 0b 12 31 d0 82 94 33
       -0.10827737 -0.052487336 2.1252118e-09 6.915582e-08
000200 29 6f 94 32 f9 4f 31 b4 7f d5 28 b3 b4 75 31 34
       1.7280017e-08 -1.6513503e-07 -3.930972e-08 1.652723e-07
000210 5d dc 11 3c 37 c7 2b ba a8 a8 5a 30 e8 bf 1e bc
       0.008902636 -0.00065528176 7.9547613e-10 -0.009689309
000220 42 71 8a bc e9 f9 fa 3c 01 e1 c7 bc 3a 0c 0e bd
       -0.016899709 0.030636745 -0.024399282 -0.03467963
000230 24 7a 07 3c 40 28 97 3c 29 ef ea bc 71 ed 3c 3d
       0.008268867 0.01845181 -0.028678494 0.04612488
000240 e5 a5 9d 3d 81 b5 e6 3d 14 f7 d2 3d 6a 86 3d 3d
       0.076976575 0.11265088 0.10301033 0.046270765
000250 37 4b bb 3d 1a 09 a0 3d b5 31 a6 3d 56 06 ad 3d
       0.091452055 0.07814236 0.081149496 0.08448474
000260 84 b8 a0 3d 6a 18 b9 bc 7c a6 0f bd cd 58 12 3d
       0.078476936 -0.02259465 -0.03507088 0.03572922
000270 e1 99 e8 3c 6e bf 07 3d c8 66 7b 3d 3d c2 07 ba
       0.028393688 0.033141546 0.061377317 -0.0005178785
000280 bc 9a 0e 3d 81 ff f3 bb a3 33 71 3d c9 06 83 3d
       0.034815535 -0.00744623 0.058887135 0.063977785
000290 0e c6 c0 3d a5 f0 e4 3d 3b 7a f1 3d e0 da 9f 3d
       0.09412776 0.11178712 0.11790892 0.07805419
0002a0 fc 28 b0 3d 69 09 2f 3c 07 52 16 3d c9 ac 78 3d
       0.08601567 0.010683396 0.03669932 0.060711656
0002b0 b5 27 78 3d f7 d3 a3 3c 04 ce 07 3d df ce 0c 3d
       0.060584743 0.019998534 0.033155456 0.034376975
0002c0 5c fa bd 3a 7d c4 4e 3d c5 16 a0 3d 97 2c 90 3d
       0.0014494169 0.050480355 0.07816843 0.07039755
0002d0 fe b1 9d 3c 2c d5 6c bc ad 08 d8 bb 0d 43 4b 3d
       0.019249912 -0.014455121 -0.006592831 0.04962449
0002e0 24 3c c1 3d 28 85 06 3d 82 a7 94 3c 41 91 b1 3c
       0.09435299 0.03284183 0.01814628 0.021675708
0002f0 0b 06 66 3d 95 55 95 bc a0 57 f0 bb ae c6 db 3d
       0.056158107 -0.018229285 -0.0073346645 0.107312545
000300 70 f1 1a 3d e4 a1 86 3d 27 af 6c 3d aa 9e 2d 38
       0.03782791 0.06573847 0.057784226 4.139418e-05
000310 c5 88 79 3d e7 1c 84 3d 25 b7 02 3d bc d3 6f 3d
       0.06092145 0.06450825 0.03191294 0.058551535
000320 54 9d 6b 3d b1 2f 57 bb 5c 0f d1 3d 2a 0b df 3d
       0.057523087 -0.0032834823 0.10208008 0.10890801
000330 5e cc af 3d ac 17 49 3d 9d 9c 9c 3d a3 3e 93 3b
       0.08583902 0.04909484 0.07647059 0.004493551
000340 2d 7f 88 3d d6 f6 86 3d 29 13 81 3d 6c 83 b6 3d
       0.06664882 0.06590049 0.06302483 0.089117855
000350 7b 32 75 3d be a6 91 3d e7 36 8f 3d 8a 8a 6c 3c
       0.059862595 0.07111882 0.06992894 0.014437327
000360 72 a4 23 3d 65 df 08 bc 7e c2 8d 3d 90 f0 96 3d
       0.03995175 -0.008354043 0.06921862 0.073701024
000370 f1 46 db 3d d4 61 24 3d 0c 05 63 3d b7 a6 68 3d
       0.107068904 0.04013236 0.055424735 0.056799617
000380 1c de e6 3d d2 98 b0 3d b3 2d 90 3b 42 13 d2 bc
       0.11272833 0.08622898 0.004399979 -0.025643948
000390 87 67 d2 bc 92 ea 27 3c af d5 b2 3d be 32 48 3d
       -0.025684131 0.010248797 0.08732163 0.048876517
0003a0 2b d3 c5 3d 5c 56 9a 3d 32 cd 39 3d 5f cb 6f bb
       0.09659418 0.07536003 0.045361705 -0.0036589724
0003b0 3a b4 c0 3d ea a4 a4 3d bc c4 6e 3d 18 11 8c 3b
       0.094093755 0.08039267 0.05829309 0.0042744987
0003c0 34 53 9d 3d b7 d6 37 3d a3 fd 8f 3d 68 b6 71 3d
       0.07681885 0.044882502 0.07030799 0.059011847
0003d0 00 d9 9b 3d 6b 61 b5 bb 25 8b e3 3c ad 73 c0 3d
       0.07609749 -0.005535295 0.02777631 0.093970634
0003e0 06 57 78 3d af 8b 5b b9 30 9b ee 3d ec 9f 89 3d
       0.060629867 -0.00020937504 0.116506934 0.06719956
0003f0 39 d1 f1 bc e4 52 bf bd 09 52 6c bd 72 fb 86 bd
       -0.02951871 -0.09341982 -0.057695422 -0.06590928

encoder_cnn.4.bias f4 [32]
000000 30 61 6e 3c 2e d4 54 3d 47 cd b2 3d 32 44 c3 3d
       0.0145495385 0.051960163 0.0873056 0.095344916
000010 59 a7 ab 3d 82 31 70 3d c5 d5 64 3d 2f 36 f5 3d
       0.083815284 0.058640964 0.05586793 0.11973225
000020 41 06 ba 3d d5 19 dc 3d 4a f3 f1 3c 73 cf 7c 3d
       0.09083224 0.107471146 0.029534955 0.061721276
000030 06 dc 32 bd d4 8f e2 3c 82 50 dd 3d 98 e2 3b 3d
       -0.043666862 0.027656473 0.10806371 0.045870394
000040 eb 40 c8 3c 70 b0 22 3d c7 29 3d bb 23 f3 2a 3d
       0.024445018 0.039719045 -0.0028864013 0.04173578
000050 11 8b 0f 3c fe 05 1c b8 7d cf 1a bc 62 1f ba 3d
       0.008761183 -3.719888e-05 -0.009448883 0.09088017
000060 42 d3 41 3d 93 19 34 3c 04 86 14 3d 13 62 e4 3b
       0.04732061 0.0109924255 0.03626062 0.006969699
000070 59 a0 a1 3c 60 52 3b 3d e4 16 a1 3d ba 00 aa 3c
       0.01972978 0.045732856 0.07865694 0.0207523

encoder_lin.0.weight f4 [64, 288]
000000 bb fa bf bb f6 ff 82 bd 5c 87 37 bc 11 43 83 3d
       -0.005858747 -0.06396477 -0.011201706 0.06409276
000010 66 ea 0d bd 1d 25 c1 3d 8c de 7d 3d d9 c2 ab bd
       -0.034647368 0.09430907 0.061979815 -0.083867736
000020 4c 55 55 3d 1a 0b 81 bb c0 7b 81 bd 22 a3 a2 bb
       0.0520833 -0.003938091 -0.063224316 -0.0049632946
000030 3d 22 8a 3d c6 9e c7 bc 00 26 bc 3d 92 b1 6d 3d
       0.06744812 -0.024367701 0.091869354 0.058030672
000040 88 d9 a3 bd 47 38 41 3d 03 79 22 3b 39 14 82 bd
       -0.08000475 0.04717281 0.0024791367 -0.063515134
000050 fc ed 3e bc 5b 83 80 3d b4 a6 ed bc fa 1b ae 3d
       -0.01165342 0.06275054 -0.029010154 0.0850143
000060 9f 0f 7d 3d 3e 9c a2 bd 14 62 2c 3d 68 f6 b6 bb
       0.061782476 -0.07939957 0.042085722 -0.005583573
000070 65 5d 7e bd cd 96 80 bb 8b d0 85 3d 70 1d 8f bc
       -0.062100787 -0.003924227 0.06533917 -0.017470092
000080 d3 b5 b7 3d 87 b0 90 3d 50 d4 a0 bd 20 8d 6d 3d
       0.08970227 0.0706492 -0.078529954 0.057995915
000090 21 ed 62 bb 4b 15 83 bd 7e 4f fc bb 7a 6f 5f 3d
       -0.0034626203 -0.06400546 -0.007699906 0.05454967
0000a0 8c f9 eb bc c3 6c b9 3d 70 cb 8d 3d d4 04 96 bd
       -0.028805517 0.09053948 0.06923568 -0.0732514
0000b0 65 14 8b 3d ff 2b db 3b c8 4d 84 bd 09 38 c6 bc
       0.06790999 0.0066885944 -0.06460148 -0.024196642
0000c0 fe db 8b 3d 6f 5a b8 bc 52 f8 b1 3d e9 b9 93 3d
       0.068290696 -0.02250406 0.086899415 0.07213194
0000d0 5c 3b 93 bd 60 5d e6 3c 41 a8 3a 3c d0 7a d5 3c
       -0.07189056 0.028120697 0.011392654 0.026059538
0000e0 cc 7e 17 3c 88 10 7c bd 81 23 a7 3c 13 88 55 bc
       0.009246539 -0.061539203 0.020402672 -0.013032931
0000f0 54 66 94 3c 82 80 9a 3d d9 3f 91 3d 93 a4 8e 3b
       0.0181152 0.07544042 0.07092256 0.004353115
000100 04 8a 7f bd 7d 8a 0b bc e1 be 6f 3d 7e ef e9 bc
       -0.06238748 -0.008516905 0.058531646 -0.028556582
000110 46 f0 a9 3d f7 87 8d 3d 21 2e a3 bd 96 58 3d 3d
       0.08297782 0.06910699 -0.07967783 0.04622706
000120 2c 6b 66 bb e2 e5 86 bd 21 77 4a bc 62 ad 6e 3d
       -0.0035159094 -0.065868154 -0.012357504 0.05827082
000130 ce 20 fa bc 00 18 aa 3d 09 c8 90 3d d1 15 97 bd
       -0.03053322 0.08305359 0.07069404 -0.07377208
000140 6e a4 67 3d 43 e8 10 3c 39 14 72 bd aa 9d 60 bb
       0.056553297 0.008844438 -0.059101317 -0.0034273663
000150 39 a5 7e 3d b6 5d e2 bc 4e 14 b6 3d 84 20 83 3d
       0.062169287 -0.027632575 0.088905916 0.06402686
000160 a4 98 a7 bd 57 e6 64 3d c0 f3 f4 3c e1 ff df 3c
       -0.08183411 0.05588373 0.029901385 0.027343692
000170 1e 43 aa 3c b2 79 ce 3c 77 b2 0a 3c c8 72 8d bb
       0.020783957 0.025204513 0.008465401 -0.0043166615
000180 ec 54 1e 3b 76 6e 10 3b ab 4e 9a bc 9b 46 66 bd
       0.0024159504 0.0022038496 -0.01883634 -0.05621968
000190 42 d3 2d 3d 35 db 53 3d 9a 40 61 bd 0c 79 e1 3c
       0.0424378 0.051722724 -0.05499325 0.02752354
0001a0 c0 1b 6a 3d 33 fe 80 bd 7d e6 9f 3c 0b 74 9e 3d
       0.05715537 -0.06298485 0.019519085 0.07736977
0001b0 c8 d9 fa 3a df 8b 8a bd 07 05 de bc 15 b8 89 3d
       0.001913839 -0.067649595 -0.027102007 0.06724564
0001c0 7e a8 a1 bc 2f d3 af 3d ac a5 8d 3d 3d 45 9f bd
       -0.019733664 0.08585202 0.06916365 -0.07776878
0001d0 56 1c d5 3c ee d0 49 3b 31 8d 49 bd 7a cd b2 bc
       0.026014488 0.0030794698 -0.049206916 -0.021826494
0001e0 b3 a2 4a 3d 68 74 1b bd 53 34 b6 3d 57 b4 99 3d
       0.04947157 -0.03795281 0.08896699 0.075051
0001f0 70 b0 9d bd cc d0 f9 3c 49 34 1e bc 39 43 8c bd
       -0.076996684 0.03049507 -0.00965602 -0.06848759
000200 64 6e 9d b9 1b 44 35 3d 2f 61 f8 bc de 88 bb 3d
       -0.0003002762 0.044254404 -0.030319778 0.09156965
000210 b7 d7 87 3d ea a6 a4 bd 39 5d 83 3d a8 b1 8f 3c
       0.06632941 -0.08039649 0.06414265 0.017540768
000220 59 f1 10 3a b3 5c a6 bc 77 fc c7 3b 85 87 03 3a
       0.00055291277 -0.020307874 0.006103094 0.00050174474
000230 e4 6a f8 bc 60 7b 33 3c 42 4e 27 3d c8 0f 37 3c
       -0.030324407 0.010954708 0.040846117 0.011173196
000240 1d 6a 52 bb 7b 7c 6b bd cb 57 7e bc 1a e9 85 3d
       -0.0032106705 -0.05749176 -0.015523861 0.06538601
000250 2a e8 eb bc 15 ef b7 3d a8 ad 8f 3d fc b0 97 bd
       -0.028797228 0.08981148 0.07015544 -0.07406804
000260 67 b9 2e 3d a4 86 10 39 5e 68 84 bd 82 45 92 bc
       0.042657282 0.00013783068 -0.06465219 -0.01785541
000270 cc 88 87 3d ee 96 df bc 97 f1 b2 3d cb f6 93 3d
       0.06617889 -0.027293649 0.08737486 0.072248064
000280 d4 dd 8b bd cb 6d fb 3c 97 1e 0d 3d 7e b1 16 3d
       -0.0682942 0.030692002 0.034453 0.036790363
000290 91 bd 98 bc 14 94 b5 b9 11 c8 c1 3c 34 c7 9d bd
       -0.01864508 -0.00034633337 0.02365497 -0.077040106
0002a0 1f fe a1 3c 03 c5 89 3d 11 fc 37 bd 6f 98 03 3d
       0.019774495 0.0672703 -0.044918124 0.032127794
0002b0 3b 73 2b 3d 26 99 a5 3c d0 4a 0b bc 3a c0 a3 3c
       0.04185794 0.020214628 -0.008501723 0.019989122
0002c0 c9 50 ee bc d6 58 39 bc f8 38 5b 3d 8d 0e 40 3c
       -0.029091256 -0.011312684 0.053521127 0.011722219
0002d0 6b 49 86 bb 4d d6 78 bd e1 50 0e bc 1d 59 7a 3d
       -0.0040981076 -0.06075125 -0.008686275 0.06112014
0002e0 49 52 07 bd 52 fc 98 3d d5 ea 85 3d 03 30 9f bd
       -0.033037458 0.07470001 0.06538931 -0.077728294
0002f0 5d 85 27 3d 98 9e 9e b4 8a 4c 31 33 ae b5 70 39
       0.04089867 -2.9545185e-07 4.1280636e-08 0.00022955865
000300 d9 94 ca 39 c4 61 a5 3a 76 5c f1 33 61 c4 ff b5
       0.00038639343 0.0012617637 1.12392556e-07 -1.9056134e-06
000310 86 14 1e 34 1d 48 0e b5 aa 88 7c bb 35 a0 87 bd
       1.4722363e-07 -5.300406e-07 -0.0038533607 -0.06622354
000320 d5 b2 0c bc 00 d7 85 3d 12 50 ff bc f3 87 c4 3d
       -0.008587559 0.065351486 -0.03116611 0.09596243
000330 55 2d 8e 3d 74 50 a9 bd 08 e0 4d 3d af 38 a9 ba
       0.0694224 -0.08267298 0.05026248 -0.001291057
000340 2a 98 68 bd 99 89 b6 bb a6 92 76 3d e5 cc af bc
       -0.05678574 -0.005570602 0.06019845 -0.021460006
000350 13 c1 b9 3d 89 de 8e 3d 8c 82 a5 bd 2d 76 5a 3d
       0.09070029 0.06976039 -0.080815405 0.053335357
000360 f0 af 2f 3c 41 96 2e 3d 35 0f ff 3c df b8 35 bd
       0.010723099 0.042623762 0.031135181 -0.04436576
000370 96 03 b5 3c 32 dc 4a bb b5 9f 45 bd 4d d0 62 3d
       0.022096436 -0.0030954 -0.04824801 0.055374432
000380 0f bc 45 3d 34 3c 1d 3b c2 8d 87 bd 34 ee a9 bc
       0.04827505 0.0023992183 -0.06618835 -0.020743467
000390 f5 52 51 3d 4b 97 e2 bc b2 c8 ac 3d 86 66 95 3d
       0.051104505 -0.027660033 0.08436717 0.072949454
0003a0 b9 c0 a3 bd 8c 91 a9 3c 1e 92 a7 bb e8 17 8f bd
       -0.07995743 0.020699285 -0.005113854 -0.06986982
0003b0 35 79 ae 3b 67 c5 7f 3d 7a ee fb bc 7e dc ca 3d
       0.0053245076 0.062444117 -0.030753363 0.09905337
0003c0 a7 26 8d 3d f1 9e c3 bd bc bd 86 3d 51 97 9a bb
       0.06892138 -0.095518 0.06579158 -0.0047177454
0003d0 79 8d 89 bd 09 51 54 bc 7b ad 82 3d 7c 3c 02 bd
       -0.06716437 -0.012958773 0.06380745 -0.031795964
0003e0 02 af c3 3d 2e 84 82 3d a4 1d ae bd d1 3f 68 3d
       0.095548645 0.063728675 -0.08501747 0.056701485
0003f0 26 7e e1 ba ec ec 86 bd 54 c1 0c 3b 39 13 50 3d
       -0.0017203733 -0.06588158 0.0021477537 0.050799582

encoder_lin.0.bias f4 [64]
000000 7e 74 93 3c 91 18 1b 3d 44 aa 5f 3d a8 8e 0e bd
       0.017999884 0.037865225 0.054605737 -0.034804016
000010 23 36 87 3d f5 19 8e 3d 5c 8a 44 3d 2c 08 e7 3c
       0.06602123 0.06938545 0.047983512 0.028202139
000020 a4 c5 ba bb 15 3b b6 3d 6a 4d 35 3c 5c 04 83 3c
       -0.00569983 0.08897988 0.01106582 0.01599329
000030 d2 50 2d bc cf 80 80 3d 8d 72 cd 3c 12 ed b8 3d
       -0.010578351 0.06274568 0.025079036 0.090295926
000040 18 70 10 3d cc af eb 3c a5 83 b5 bc fe 08 31 3a
       0.03526315 0.02877035 -0.0221575 0.0006753354
000050 e3 d9 66 bc 4b cf 08 3d c3 c6 aa bc ed 0e 98 b9
       -0.014090034 0.033400815 -0.02084673 -0.0002900282
000060 ca ad 43 3d 7d bb 42 bc 3a 59 b4 b8 a0 60 17 3d
       0.04777316 -0.011885521 -8.5996886e-05 0.036957383
000070 9a 6a 59 3d 43 72 04 3d 6e 18 84 3d eb ed f2 bc
       0.05308018 0.03233553 0.06449972 -0.029654464
000080 a9 ec ef 3c ba 92 df 3c e4 ae 57 3d ae 4b fd 3c
       0.029287653 0.027291644 0.052657023 0.030919876
000090 f2 79 24 3d 84 63 26 3b 47 a4 75 3d aa d6 b2 3d
       0.04015536 0.0025388906 0.05997112 0.0873235
0000a0 c2 f3 5a 3b 22 9b b8 bc 56 58 da b8 01 05 9f 3d
       0.003340945 -0.02253491 -0.00010411504 0.07764626
0000b0 be cb 07 3d 88 f5 6e 3d c3 d9 c0 3d c8 c2 c4 bb
       0.033153288 0.058339626 0.09416535 -0.006004665
0000c0 e4 9a 35 3d e6 85 2e bc 29 26 61 bb bc 1f 97 3d
       0.04433717 -0.010652041 -0.003435502 0.073791
0000d0 ef 9b df bc 9a fd a2 bc 04 03 99 3c 2b b3 6f bc
       -0.027296035 -0.019896317 0.018678196 -0.014630119
0000e0 06 5c b9 3d 0f 77 26 bc 01 ad c6 39 99 07 c0 3c
       0.09050755 -0.010160222 0.000378944 0.023441123
0000f0 c1 10 bf b9 00 a1 b1 3a d5 38 4c 3d b4 30 19 b8
       -0.00036442842 0.001355201 0.049858887 -3.65234e-05

encoder_lin.2.weight f4 [2, 64]
000000 6f db 0b bd 4b 58 20 be aa fc 2d be 4e 72 e1 3d
       -0.034144815 -0.15658681 -0.16990915 0.1100813
000010 ed 02 03 be de 97 3b be c5 11 1b be 7e 09 42 3e
       -0.12794085 -0.18319651 -0.15143497 0.18948933
000020 61 fc 3a 3e 2b 32 1b be c6 51 98 bd bd b3 47 3c
       0.18260337 -0.15155856 -0.07437472 0.012188849
000030 cc 8b 18 3e 81 2a ed bd 9c 43 9f 3c 6c 58 2b be
       0.14897078 -0.115803726 0.019441418 -0.16732949
000040 05 0c f4 bd 7c 59 90 3d c3 5b a9 3c 6d 38 3d bb
       -0.11916355 0.07048318 0.020673638 -0.0028872744
000050 ad d0 40 3e 8a d6 83 3d f6 24 c3 3b 0e 02 14 bc
       0.18829603 0.064374045 0.005955334 -0.009033693
000060 46 ef e7 bd fb e9 ad b9 3c 26 0c 3e 56 fc 89 bd
       -0.11324935 -0.0003317146 0.1368646 -0.067375824
000070 5f e9 36 bc 98 b0 73 3d d8 2e cd bb 73 88 34 bd
       -0.011164038 0.059494585 -0.0062616877 -0.04407544
000080 23 f9 1e 3d 05 e6 22 be 52 ac b1 bd a9 d6 2b 3e
       0.038811814 -0.15908058 -0.086754456 0.16781105
000090 f0 6b 1b be a5 0b f8 bd 45 ad c7 bd f0 6e cd bd
       -0.15177894 -0.12111596 -0.097498454 -0.10030925
0000a0 c6 39 0c 3e d6 20 ff bc ec 8c f7 33 15 47 ca bd
       0.13693914 -0.031143587 1.1527467e-07 -0.09876839
0000b0 a1 8e 6e bd c6 c4 ec bd d1 cd 10 be 23 30 78 b7
       -0.05824149 -0.11560969 -0.14141013 -1.479316e-05
0000c0 db 15 dc bc f9 cb 05 3e 38 05 1b bd dc 6e c3 bc
       -0.02686589 0.1306609 -0.037846774 -0.023856573
0000d0 2b bd 81 3d ab d8 92 bd aa e6 16 3e d8 4a dc bd
       0.06334909 -0.071702324 0.14736429 -0.10756463
0000e0 99 61 fa bd 89 0d c3 3d 9d f8 9d 39 aa c4 37 3d
       -0.122256465 0.09524066 0.00030130605 0.044865288
0000f0 f5 11 75 bb 35 e8 78 bd 6c ce a9 bd 83 ab 10 3e
       -0.0037394736 -0.060768325 -0.08291325 0.14127927
000100 24 bc c9 3d 9d 91 05 3e ef f9 b6 bd 27 11 f3 3c
       0.09850338 0.13043828 -0.0893439 0.029671265
000110 d6 aa ac bd e0 09 43 3d 08 81 e0 3d a1 9d 83 3c
       -0.08431022 0.04761684 0.10962111 0.016066374
000120 83 df 3c bd 91 d6 a5 bd 02 f2 50 bd ce ea b4 3b
       -0.046111595 -0.08097566 -0.051012047 0.005521155
000130 b2 ae 40 bd 87 87 31 3e 9d f4 83 3c b4 0d 34 3d
       -0.047041602 0.17336856 0.016107852 0.04395838
000140 24 a5 61 3c 57 7a 4d bd 1b 2f 56 3d 42 49 11 3d
       0.013772283 -0.0501655 0.052291017 0.035470255
000150 62 51 81 bc e4 6f a9 bc aa 85 85 32 ba bb 00 ba
       -0.015785877 -0.020683236 1.5544021e-08 -0.0004910786
000160 72 27 60 bd 0e 1d 5a bc ba b9 32 3d de 5f c6 3d
       -0.054725118 -0.013312591 0.043634154 0.09686254
000170 13 ce 07 be 38 fe 61 3c d0 7f 36 be 43 39 6d bd
       -0.13262205 0.013793521 -0.17822194 -0.057915937
000180 ce 2d 1d 3d f5 c1 0c 3d 5f e7 c1 bd 93 f0 06 bd
       0.03837376 0.03436466 -0.09467959 -0.032944273
000190 27 e9 ad bd da 5f 17 3d 52 d2 ff 3d 8d c4 da 3b
       -0.08491736 0.036956646 0.12491287 0.0066762627
0001a0 1d b9 8f bd 7b 56 0e be 95 f2 92 3a 20 1b 03 be
       -0.070177294 -0.13900177 0.0011211211 -0.12803316
0001b0 ab c2 22 3e c6 fd 8b bd 60 66 dc bd b2 2e bc 3c
       0.15894572 -0.06835513 -0.10761714 0.022971485
0001c0 c1 9b 03 be 6b 60 2e bd 0c cc 06 be 6d 97 36 be
       -0.12852384 -0.04257242 -0.13163775 -0.17831202
0001d0 a1 a9 27 bc b5 a9 52 3d b2 c0 fb 3d 68 c1 b9 bd
       -0.010233314 0.051431376 0.12292613 -0.090700924
0001e0 09 7d 36 bc b1 73 56 bd 35 21 35 3c 6d 7a 32 3c
       -0.011138209 -0.052356426 0.01105528 0.010893446
0001f0 78 09 0a bc 0e 2a 0f bd e4 f3 37 be 3b 45 2a bd
       -0.008425109 -0.034952216 -0.1796413 -0.04156993

encoder_lin.2.bias f4 [2]
000000 05 8b 93 3c 0b 28 9b bc
       0.018010626 -0.018939992
